Models/TCSVT_Encoder_Base.model (torch_old, 37619 bytes, 10 tensors)

conv1.0.kernel f4 [64, 1, 3, 3]
0	0x3f0218e6	0.5081924
1	0xbe60918c	-0.21930522
2	0xbed83756	-0.42229718
3	0xbf2ea56c	-0.68221164
4	0xbf1b5237	-0.60672325
5	0x3fe44bca	1.7835629
6	0xbf1c73d1	-0.6111422
7	0xbfee6bdc	-1.8626666
8	0x3f8686cb	1.0509886
9	0xbf193183	-0.59841174
10	0xbf224317	-0.6338362
11	0x3f322b04	0.69596887
12	0x3fde3d72	1.7362502
13	0x3f9ae3ef	1.210081
14	0x3fa6de2e	1.3036554
15	0xbebc256d	-0.36747304
16	0xbad930cb	-0.0016570328
17	0xc069fa75	-3.6559117
18	0x3f95e48e	1.1710374
19	0x3e623ce3	0.22093539
20	0x3f32ee25	0.6989463
21	0xbf648786	-0.8926929
22	0xbf196286	-0.5991596
23	0xbf1a30de	-0.60230815
24	0xbf3df4d1	-0.74201685
25	0xbf25e9c9	-0.6480985
26	0xbe1aef49	-0.15130343
27	0x4028ff08	2.6405659
28	0x3f59cca9	0.8507791
29	0xbf9cb613	-1.2243065
30	0xbfa95bda	-1.3231156
31	0x3fa25692	1.2682669
32	0xbfc1d66d	-1.5143563
33	0xbf121b00	-0.5707245
34	0x3d1f3915	0.038872797
35	0xbce47624	-0.027888365
36	0xbf0fae6e	-0.56125534
37	0x3eb1ba0f	0.34712264
38	0x3f3257b3	0.6966507
39	0x3f1532bc	0.5828054
40	0x3fab4853	1.3381447
41	0xbd32c8e6	-0.043648623
42	0x3f91abb9	1.138053
43	0x4013a5ad	2.306987
44	0xbf81bf74	-1.0136552
45	0xbc2ce2d1	-0.010552124
46	0xbfb9c9d3	-1.4514717
47	0x403a517a	2.911223
48	0x3fa5f7e3	1.2966274
49	0xbf67127b	-0.90262574
50	0x3fa8b378	1.317977
51	0x3ee70048	0.45117402
52	0xbf98fda1	-1.1952401
53	0x3f395b34	0.7240479
54	0xbead28bc	-0.3382014
55	0xbf3c38e6	-0.7352432
56	0x3da1a172	0.078921214
57	0xbeb77918	-0.35834575
58	0xbec15947	-0.37763426
59	0x3f3b8e29	0.73263794
60	0x3f067bca	0.5253264
61	0x3edf8dd7	0.43662903
62	0xbf3df4eb	-0.7420184
63	0x3f526165	0.8217986
64	0xbfca29cb	-1.5794004
65	0xbdb4a92e	-0.08821331
66	0xbee7fb9d	-0.45309153
67	0x3eca0a6c	0.39461076
68	0xbf46b1ea	-0.77615225
69	0x3e306e5c	0.17229599
70	0x40320a41	2.7818758
71	0x3f8a01df	1.0781821
72	0xbe63a1fd	-0.22229762
73	0xbd4d6e46	-0.050153993
74	0xbf00d840	-0.5032997
75	0xbf8b34d2	-1.0875494
76	0xbef85f87	-0.48510382
77	0xbddb23ea	-0.107002094
78	0x3f9d6978	1.2297812
79	0xbf6aa3a9	-0.91655976
80	0x3fa4f45f	1.2887076
81	0x397da3e0	0.00024189008
82	0x3fb2eb71	1.3978101
83	0xbd922779	-0.07136435
84	0xbeb222cb	-0.3479217
85	0xbf5d7ae7	-0.8651566
86	0xbf39317d	-0.7234114
87	0xbe870fc2	-0.2637921
88	0x3fdc8f47	1.7231225
89	0xbf6b108f	-0.9182214
90	0xbf0f89f7	-0.5606989
91	0x3f804bf3	1.0023178
92	0xbda90f40	-0.08254862
93	0xc0083646	-2.1283126
94	0x3d5d78f2	0.05407042
95	0xbdd82d64	-0.105555326
96	0x3f30894b	0.6895949
97	0x3f9842f4	1.1895432
98	0x3e54cbf0	0.20780921
99	0x3e1a4f68	0.15069354
100	0xbf249e49	-0.64304024
101	0xbff0542f	-1.8775691
102	0x3f106728	0.56407404
103	0x3ee389f1	0.44441178
104	0xbe040014	-0.12890655
105	0x3e91e148	0.28492188
106	0x3f5f3c50	0.87201405
107	0xbe4c8613	-0.1997302
108	0xbf73372c	-0.9500606
109	0x3f970880	1.1799469
110	0x3eca0475	0.39456525
111	0xbf36550d	-0.7122353
112	0x3f9cf88d	1.2263352
113	0x3f2008c8	0.625134
114	0xc06c8e07	-3.6961687
115	0x400953d0	2.1457405
116	0x3f0858d2	0.5326053
117	0x3c386f7c	0.011257049
118	0x3f10e371	0.5659705
119	0xbf30ebd6	-0.6910986
120	0xbf8ff262	-1.1245844
121	0xbfc4d819	-1.5378448
122	0xbc8aabb0	-0.01692757
123	0x3f279d9f	0.65474886
124	0x3f4b1721	0.79332167
125	0xbf32b01b	-0.69799966
126	0xbf8fc155	-1.1230875
127	0xbf747490	-0.9549036
128	0x3ef9ab10	0.48763323
129	0x3eaa641f	0.3327951
130	0xbe726d93	-0.23674612
131	0x3f4ec873	0.8077461
132	0x4000b664	2.0111322
133	0xbeec7290	-0.46181154
134	0xbf9f83e6	-1.2462127
135	0xbe5b9b5d	-0.21445985
136	0xbff98079	-1.9492332
137	0x4007ffa3	2.1249778
138	0x3e2d2bd6	0.16911253
139	0xbdac83fc	-0.084236115
140	0x3d6cffdb	0.05786119
141	0xbfae65e0	-1.362484
142	0x3eb0518e	0.3443722
143	0x3fcc69ed	1.5969826
144	0xbf1e72a4	-0.6189368
145	0x3f144067	0.5791077
146	0xbe210479	-0.15724362
147	0x3fec959a	1.8483155
148	0x3f0a9943	0.5414011
149	0xbf243064	-0.6413634
150	0x3f5f6645	0.87265426
151	0xbfb10454	-1.3829446
152	0xbf1aeba7	-0.60515827
153	0x3f7a7b34	0.97844243
154	0xbeb8c0d7	-0.36084625
155	0x3f265c3f	0.64984506
156	0xbf2194e2	-0.631178
157	0xbdbed59a	-0.09318085
158	0xbfc47fa9	-1.5351459
159	0x3e876f09	0.264519
160	0x3f04d0ac	0.5188091
161	0xbf71d994	-0.9447262
162	0xbfda6319	-1.7061492
163	0xbfece3a3	-1.8506969
164	0x3e3ae327	0.18250714
165	0x3f98c322	1.193455
166	0x404bd020	3.184578
167	0x3f61036c	0.87895846
168	0xbd940ba6	-0.07228784
169	0x3f1f0d77	0.6212992
170	0x3f3f4a1b	0.7472245
171	0xbf3621f9	-0.7114559
172	0x3d49cf6c	0.04927008
173	0xbf0e5279	-0.55594593
174	0xbef38106	-0.47559375
175	0x3efab96d	0.48969594
176	0x3fadf34f	1.3589877
177	0x3f0ed855	0.55798846
178	0x3dca1281	0.098668106
179	0xbd7e4bf5	-0.062084157
180	0x3ed9614d	0.42457047
181	0xbfe55ef8	-1.7919607
182	0x3ec0f8e7	0.37689897
183	0xbe73fe6c	-0.23827523
184	0x3efe31d5	0.49647394
185	0x3f5b776e	0.8572911
186	0xbff090d9	-1.8794204
187	0x3fd42d3f	1.6576308
188	0xbdb655ce	-0.08903085
189	0xbf04599e	-0.51699245
190	0x3ee3c7bd	0.44488326
191	0x3e1a94c5	0.15095814
192	0x3eaa3247	0.33241484
193	0xbfc54b01	-1.5413514
194	0x3d35c743	0.044379484
195	0x3eaaa0c0	0.33325768
196	0x3f6aceac	0.91721606
197	0xbf246344	-0.6421397
198	0x3ff2ea5a	1.8977768
199	0xbeacccff	-0.3375015
200	0x3f8c9fca	1.0986264
201	0xbce1686f	-0.027515618
202	0xbfc5a599	-1.5441161
203	0x3ddbbc61	0.1072929
204	0xc0250abc	-2.5787802
205	0x3ea4b590	0.3216977
206	0xbf634b08	-0.88786364
207	0x3eaa0ee3	0.33214483
208	0xbe992072	-0.29907566
209	0xbea4a6ec	-0.321586
210	0x3f609acc	0.877362
211	0x3eb632a8	0.35585523
212	0xbef55044	-0.479128
213	0x3fd5d01c	1.6704135
214	0x3f0bda75	0.54630214
215	0xbfd15208	-1.6353159
216	0xbfb477ba	-1.4099038
217	0xbf97f498	-1.1871519
218	0x3eeebae8	0.46626973
219	0xbea6efef	-0.3260493
220	0xbf9a23c1	-1.2042161
221	0xbe6fa2e1	-0.23401977
222	0x3f1ea604	0.6197207
223	0x3e9afb2c	0.30269754
224	0x3d50ddc2	0.050992735
225	0x3f37f9a3	0.7186529
226	0x3eee3eb6	0.4653222
227	0xbdf3e032	-0.11907996
228	0xbe1ca6d9	-0.15298022
229	0x3f14d830	0.58142376
230	0x3e8916f0	0.26775312
231	0xbfb9f1f4	-1.4526963
232	0xbf5ea114	-0.86964536
233	0x3f5346b3	0.82529753
234	0x3f4855b0	0.7825575
235	0xbef2a20a	-0.4738925
236	0x3de4db46	0.111746356
237	0x3fd4ed20	1.6634865
238	0x3c1a66e3	0.009423944
239	0xbf85be1b	-1.044864
240	0xbfb1fe8c	-1.3905807
241	0xbf41897b	-0.75600404
242	0xbea73905	-0.3266069
243	0x400fac52	2.2448926
244	0x3e3d61ce	0.18494341
245	0x3e9d6a32	0.30745083
246	0x3f2eae9f	0.682352
247	0xbf939b72	-1.1531813
248	0x3f3b22d8	0.7310004
249	0xc03b40a1	-2.9258196
250	0x3ec8dd70	0.39231443
251	0xbf6252c7	-0.8840756
252	0x3fd95155	1.6977946
253	0x3f4cfa2c	0.8006923
254	0x3f736a43	0.9508402
255	0xbfd91325	-1.6958967

conv1.1.kernel f4 [64, 1, 3, 3]
0	0x3e64dcae	0.22349808
1	0xbf1ea8b7	-0.6197619
2	0x3fe56d54	1.7923989
3	0xbebf62c4	-0.3738004
4	0xbdd795b6	-0.10526602
5	0x3f64de12	0.8940135
6	0x3fc1a4a1	1.5128366
7	0x3f75a9ca	0.959622
8	0x3f93781d	1.1521031
9	0x3f33207d	0.6997145
10	0x3ed7c534	0.42142642
11	0x3c53fa92	0.012938159
12	0x3e5a2745	0.21304043
13	0x3f3480de	0.70509136
14	0xbebf5c1b	-0.37374958
15	0xbf2c1f47	-0.67235225
16	0x3f9df9a8	1.2341814
17	0x3f8e3e3f	1.1112746
18	0x3f855f6b	1.0419744
19	0xbe4ae1be	-0.19812676
20	0xbfb22008	-1.3916025
21	0x3fc7f977	1.5623006
22	0xbf6a77cd	-0.9158905
23	0xbfdfdb29	-1.7488757
24	0xc021c50d	-2.527652
25	0xbfb46389	-1.4092876
26	0x3f11829d	0.56839925
27	0x3fee8562	1.8634455
28	0x3e74d4d3	0.23909311
29	0xbea43e96	-0.32079
30	0xc0002f4c	-2.0028868
31	0xbf704705	-0.9385837
32	0x400adb57	2.1696374
33	0xbe8469bd	-0.25861922
34	0xbed8749f	-0.42276475
35	0x3d9ca1e2	0.07648064
36	0xbfc383c1	-1.5274583
37	0xbf578078	-0.841804
38	0x3f481a70	0.7816534
39	0x3f3ff946	0.74989736
40	0xbf9c6802	-1.2219241
41	0x3e9c5785	0.30535522
42	0xbff3ba92	-1.9041312
43	0x3f33a54a	0.70174086
44	0x3f07dfce	0.53075874
45	0xbdebad82	-0.11507703
46	0xc00f8588	-2.242525
47	0xbed3e4f8	-0.41385627
48	0xbe60d1d7	-0.21955048
49	0x3f84ac4b	1.036508
50	0x3e9c71bf	0.3055553
51	0x3efc83c2	0.49319273
52	0xbf518dd9	-0.8185707
53	0x3f2fd446	0.6868328
54	0xbf65e6d3	-0.89805335
55	0x3e7f45a0	0.24928904
56	0xbfbb49c2	-1.4631884
57	0x3f5e938c	0.8694389
58	0x3ed80067	0.42187807
59	0xbfa33688	-1.2751017
60	0xbea185b7	-0.3154733
61	0xbf8d2814	-1.1027856
62	0xbd00a1ef	-0.031404432
63	0xbeb931ba	-0.3617075
64	0xbd34232d	-0.04397886
65	0x3dc927ec	0.098220676
66	0xbf687a77	-0.90811867
67	0x3e56b647	0.20967971
68	0x3ec07bfc	0.37594593
69	0xbd9bc4cd	-0.07605896
70	0xbf1c0eb2	-0.60959923
71	0x401a896f	2.4146383
72	0xbfccf932	-1.6013548
73	0x3fada0f0	1.3564739
74	0x4008be0f	2.1366003
75	0x3edea69e	0.43486494
76	0x3f1b7c26	0.6073631
77	0x3fe60986	1.7971656
78	0xbf6481b7	-0.8926043
79	0x3f81a5cf	1.0128726
80	0xbf206e36	-0.6266817
81	0xbef904ba	-0.4863642
82	0xbf0a27f5	-0.5396722
83	0xbfb7abf4	-1.4349351
84	0x3e94e946	0.29084224
85	0xbf8879fe	-1.0662229
86	0xbfe10fff	-1.7583007
87	0x3e3f713f	0.18695544
88	0xbebe997d	-0.37226477
89	0x3f5ac879	0.85462147
90	0x40135898	2.3022823
91	0xbfb8d863	-1.4441036
92	0x3fc64424	1.5489545
93	0x3f19ddde	0.6010417
94	0xbea90bfd	-0.3301696
95	0x3e994237	0.2993333
96	0xbeafb65b	-0.34318814
97	0xbf2e6104	-0.68116784
98	0x3fc5e07d	1.5459133
99	0xbf27260a	-0.6529242
100	0xbf085dd9	-0.532682
101	0xbf5fd833	-0.8743927
102	0x3eb7b378	0.3587911
103	0x3fa6f6dc	1.3044086
104	0x3fadeb01	1.3587343
105	0xbf19ed75	-0.60127956
106	0xbf2a5eee	-0.665511
107	0x3f17db43	0.5931894
108	0x3feb5b5a	1.8387253
109	0x3f6debcc	0.9293792
110	0xbfe917bf	-1.8210372
111	0x3f9253ba	1.1431801
112	0xbf195edc	-0.5991037
113	0x3f976710	1.1828327
114	0xbe45ddd6	-0.19322905
115	0x3f45d50b	0.772782
116	0xbee0677a	-0.43828946
117	0xbe9d573b	-0.30730614
118	0xbf3c7f89	-0.73632103
119	0x3f0a7bdc	0.54095244
120	0x3fcb3315	1.5874964
121	0xbf266b07	-0.6500706
122	0x3f33920c	0.70144725
123	0xbfc123c6	-1.5089042
124	0xbf02f449	-0.51154
125	0x3d7b1edd	0.06130873
126	0x3de80f5d	0.11331055
127	0xbe189a49	-0.14902605
128	0xbf35b310	-0.7097635
129	0xbeb7c531	-0.35892633
130	0xbf75e1e1	-0.9604779
131	0x3eeb18c4	0.45917332
132	0xbf53bf3f	-0.82713693
133	0x3f300d60	0.6877041
134	0xbda08444	-0.07837728
135	0x3f34bca2	0.7060033
136	0xbedaee65	-0.42760006
137	0xbfadc331	-1.3575193
138	0x3e8fd4cc	0.2809204
139	0x3f01d44a	0.5071455
140	0xbff029d2	-1.8762763
141	0x3fbe41d4	1.4863839
142	0x3f5a4840	0.85266495
143	0x3dd3ba99	0.10338325
144	0xbf916ba5	-1.1360976
145	0xbef9a376	-0.48757523
146	0x3fbc82c5	1.4727408
147	0xbf3d8968	-0.7403779
148	0xbf4af940	-0.79286575
149	0xc00397a5	-2.0561306
150	0xbffa1dcc	-1.9540343
151	0xbff553f7	-1.9166249
152	0x3f3ec758	0.74522924
153	0x3fb0ee06	1.3822639
154	0xbee55f83	-0.44799432
155	0x3f58bec0	0.8466606
156	0x3f8ac7e2	1.0842249
157	0x3e56de8d	0.20983334
158	0x3fc98e69	1.5746585
159	0xbf3464f8	-0.70466566
160	0x3f915197	1.1353024
161	0xbf5d296f	-0.8639135
162	0x3f87a1e8	1.0596285
163	0x3e1e5306	0.15461358
164	0x3e293485	0.16523941
165	0x3e2f8439	0.17140283
166	0x3f9b5019	1.2133819
167	0x3e04e1c8	0.12976754
168	0x3f5519c1	0.8324242
169	0x3e7521b5	0.2393864
170	0x3ea7d16a	0.32776958
171	0x3f514e7a	0.8176037
172	0x3f3ed465	0.7454284
173	0xbf923586	-1.1422584
174	0xbb962ab6	-0.0045827283
175	0x3fc66712	1.5500205
176	0x3e708761	0.23489143
177	0xbf004fc8	-0.50121737
178	0xbe7d4493	-0.2473319
179	0x3f9d8985	1.2307593
180	0xbea543d9	-0.32278326
181	0x3f8b7737	1.0895756
182	0x3e9c25d6	0.30497617
183	0x3ebd4c73	0.3697239
184	0x3f7b39b3	0.9813492
185	0x3f46aeb0	0.776103
186	0x3d79283a	0.06082938
187	0xbe4a2c1f	-0.19743393
188	0x3c0c3418	0.008557342
189	0xbfa6b8bd	-1.3025128
190	0x3f84e2b5	1.0381685
191	0x401763b6	2.3654609
192	0x3fd6e4d7	1.6788586
193	0xbfabf3a1	-1.3433725
194	0xc010e30b	-2.2638576
195	0x3fe1b0bd	1.7632061
196	0x400fad7a	2.2449632
197	0xbeae0b64	-0.33993065
198	0x3e419a10	0.18906426
199	0xbf07f8c9	-0.5311399
200	0xbfeef025	-1.8667036
201	0x3e79eade	0.24406001
202	0xbea3f029	-0.32019165
203	0x3f444918	0.7667403
204	0xbfd2463e	-1.6427686
205	0x3ea64aef	0.32479045
206	0x3fa07ea9	1.2538654
207	0xbf5308ed	-0.82435495
208	0xbf11e956	-0.5699667
209	0x3d48e693	0.049048018
210	0x3f955d7e	1.1669157
211	0xbf1d5d28	-0.6147027
212	0x3fdfb722	1.7477763
213	0x3f0b1baf	0.54339117
214	0xbf7f7796	-0.9979185
215	0xbf8ad78c	-1.084703
216	0x3e1ebbe8	0.15501368
217	0x3e9eab47	0.3099005
218	0xbf038e38	-0.51388884
219	0x3ec113c3	0.3771039
220	0x403b3439	2.9250624
221	0xbdf7f479	-0.12107176
222	0x3e842c78	0.25815177
223	0xbf13ba65	-0.5770629
224	0xbf474690	-0.77842045
225	0x3f40750f	0.7517862
226	0xbf5e7db0	-0.86910534
227	0xbe8982ce	-0.2685761
228	0x3ec27528	0.37980008
229	0x3f3fb21d	0.74881154
230	0x3f008366	0.502005
231	0x3e464269	0.19361271
232	0x3ceac18e	0.028656747
233	0xbf3186ae	-0.6934613
234	0xbdc8205a	-0.097717956
235	0xbf9569bf	-1.1672896
236	0x3f9e6445	1.237435
237	0x3f30847d	0.6895216
238	0xbebc68ff	-0.36798856
239	0xbd2e6c35	-0.042583663
240	0x400f9e72	2.2440457
241	0x3e086dba	0.13323107
242	0x3f8ea185	1.1143042
243	0x3fb36328	1.4014635
244	0xbf562b3c	-0.8365972
245	0xbf9b04db	-1.2110857
246	0xbfc55526	-1.541661
247	0x3fa5ca6a	1.2952397
248	0x3f0b600e	0.5444344
249	0xbfd4b7f6	-1.661864
250	0xbf2aa3f8	-0.66656446
251	0x3f3aa3f3	0.72906417
252	0x3eec21eb	0.46119627
253	0x3eb42efc	0.35192096
254	0xbedbc34a	-0.4292243
255	0xbcaa6133	-0.020798301

conv1.2.kernel f4 [64, 1, 3, 3]
0	0x3f3fc90e	0.7491616
1	0x3f78112b	0.96901196
2	0x3fe35407	1.7760018
3	0xbf3736b7	-0.71567863
4	0xbf964e54	-1.1742654
5	0x3fef01e5	1.8672453
6	0x3fa3aa5c	1.2786365
7	0xbeb32a33	-0.34993133
8	0x3f803e35	1.0018984
9	0x3ef9c350	0.48781824
10	0x3f9c9508	1.2232981
11	0xbf957201	-1.1675416
12	0x3f5e6777	0.86876625
13	0x3c060928	0.008180894
14	0x3f9dac7f	1.2318267
15	0xbe03c4bd	-0.12868018
16	0xbfc6457f	-1.5489959
17	0x3fb70b7a	1.4300377
18	0x3e8e1ad8	0.27754855
19	0xbecc8c77	-0.39950916
20	0xbfb1a6dd	-1.3879048
21	0x3f23f16f	0.64040273
22	0xbf74a482	-0.9556352
23	0xbe82e67f	-0.2556648
24	0x3bd6eee3	0.0065592392
25	0xbfd36f6e	-1.6518381
26	0xbf39056b	-0.7227389
27	0x3f46da4a	0.7767683
28	0x3fa5086d	1.2893196
29	0xbe9ccebe	-0.30626482
30	0xbe1b13f0	-0.15144324
31	0x3fad9f0f	1.3564166
32	0x3f7b914c	0.9826858
33	0x4008f5eb	2.1400096
34	0x3fa0bca5	1.255757
35	0x3ed049d0	0.40681314
36	0x3faf1615	1.3678614
37	0xbe876a8a	-0.2644847
38	0x3fa760de	1.3076437
39	0x3fc561ba	1.5420449
40	0x3c7bfaf4	0.015379656
41	0xbf03ca31	-0.51480395
42	0xbeb0e654	-0.34550726
43	0xbfe07d1a	-1.7538178
44	0xbd90fef2	-0.07079877
45	0x3fc14ddc	1.5101886
46	0x3fa48b6e	1.285505
47	0xbec865f2	-0.39140278
48	0x4006344d	2.0969422
49	0x3f8962c1	1.0733262
50	0xbfdff42a	-1.7496388
51	0x3fb7678b	1.4328474
52	0xbde51c0f	-0.111869924
53	0x3fdbf426	1.7183883
54	0x3f1aecbb	0.6051747
55	0x3f6f3519	0.93440396
56	0xbfbc52a7	-1.4712723
57	0x3ef76091	0.48315862
58	0xbfa36a1c	-1.2766757
59	0x3f61f301	0.8826142
60	0xbe3e2a67	-0.18570863
61	0xbe513f27	-0.20434247
62	0xbf15d3a6	-0.58526075
63	0xbed18771	-0.40923646
64	0x3f0d0b49	0.55095345
65	0xbe0d85a5	-0.13820513
66	0x3f909d2c	1.1297965
67	0x3f53cb29	0.8273187
68	0x3e7cf63d	0.24703307
69	0xbf8bc14e	-1.0918367
70	0x3f76b7e8	0.9637437
71	0x3f93bea4	1.1542554
72	0xbf06854b	-0.5254714
73	0xbe2792dc	-0.16364616
74	0xbebd4121	-0.36963752
75	0x3f9b035e	1.2110403
76	0xbe2f8d9f	-0.17143868
77	0x3f8a60b7	1.0810765
78	0xbf33b0aa	-0.7019144
79	0xbe7a9bc2	-0.2447348
80	0xbea0a91a	-0.31379014
81	0xbe9cd19b	-0.30628666
82	0xbfd2be6b	-1.6464361
83	0xbe9931bc	-0.29920757
84	0xbf705bfc	-0.93890357
85	0xbf8456ed	-1.0339028
86	0xbeeffb0c	-0.4687122
87	0xbe261ec8	-0.1622268
88	0x3f61d42e	0.88214386
89	0xbf8aa8ad	-1.0832726
90	0x3eed21e2	0.46314913
91	0xbfda9b0a	-1.7078564
92	0xbf8e1195	-1.1099116
93	0xbf4743fd	-0.77838117
94	0x3fde15d7	1.7350415
95	0xbf787330	-0.9705076
96	0xbfd2c320	-1.6465797
97	0x3f6ff3e3	0.93731517
98	0xbfd42652	-1.6574194
99	0xbee5bc5c	-0.4487027
100	0xbf3e0ae3	-0.7423536
101	0xbf180916	-0.59388864
102	0x3f239362	0.63896763
103	0x3b05cbfc	0.0020415774
104	0x3f112897	0.5670256
105	0xbfa3cc5c	-1.279674
106	0xbfd80a04	-1.6878057
107	0x3e1565c9	0.14589609
108	0x3f657c3e	0.89642704
109	0x3d796183	0.06088401
110	0x3e9f484a	0.3110984
111	0xbf809871	-1.0046521
112	0x3fb2781f	1.3942908
113	0x3ebf88d0	0.37409067
114	0x3fabb78b	1.3415388
115	0x3e336174	0.17517644
116	0x3f4d7637	0.80258507
117	0xbe7d36c1	-0.24727918
118	0xc0347777	-2.8197916
119	0x3d1cd7d5	0.03829177
120	0xbe8ba23f	-0.2727222
121	0xbfa712d5	-1.3052622
122	0xbec6f9dd	-0.38862506
123	0xbd4a9b5f	-0.04946458
124	0xc00a1ff7	-2.158201
125	0xbfb75619	-1.432315
126	0x3f27f5d1	0.6560946
127	0x3fa3b479	1.2789451
128	0x3f391368	0.72295237
129	0x3f0cebd6	0.5504736
130	0xbd979bf7	-0.07402795
131	0x3f5be48f	0.8589563
132	0xbf0d772a	-0.55259955
133	0x3f8c9180	1.0981903
134	0x402f4ef1	2.7391932
135	0x3ec42acd	0.38313904
136	0xbeb53a7b	-0.3539618
137	0x3f4cce7b	0.80002564
138	0xbf3465fd	-0.7046812
139	0x3f3ec398	0.745172
140	0xbe85a86c	-0.26105058
141	0xbf5d54c1	-0.8645745
142	0x3cacd41f	0.021097241
143	0x3f882a82	1.0637972
144	0xbfa3d10c	-1.2798171
145	0x3e483c9b	0.19554369
146	0xbf1936e1	-0.59849364
147	0x3efc58dc	0.49286544
148	0xbf9e6d45	-1.2377096
149	0x3ea474ec	0.32120454
150	0xbe1907b8	-0.1494435
151	0xbf3e9187	-0.7444081
152	0xbfd2e57c	-1.6476283
153	0xbe7f90d5	-0.24957593
154	0x3f9ed833	1.2409729
155	0x3e432c49	0.19059862
156	0x3e698800	0.22805786
157	0x3e5d19ca	0.21591869
158	0xbf86160e	-1.047548
159	0x3fbc533a	1.4712899
160	0xbf271286	-0.6526264
161	0x3f944cb1	1.1585904
162	0x3eed7501	0.4637833
163	0xbf383c15	-0.7196668
164	0xbf9cb95a	-1.2244065
165	0xbea88730	-0.3291564
166	0x3f889515	1.0670496
167	0xbe226d6c	-0.15862054
168	0xbf78c2a0	-0.97171974
169	0x3f5d52fc	0.8645475
170	0x3f594fd4	0.84887433
171	0x3f0ed012	0.5578624
172	0x3e3c7d0e	0.1840708
173	0x3ff825e2	1.9386561
174	0xbe32434a	-0.17408481
175	0x3e9f84f4	0.31156123
176	0xbfa37b66	-1.2772033
177	0x3f93730b	1.1519483
178	0x3f88b168	1.067914
179	0xbe3e2566	-0.18568954
180	0x3fc6d7e1	1.5534631
181	0xbe9c9849	-0.30584934
182	0x3f9f9d07	1.2469796
183	0xbfc0ee5c	-1.5072742
184	0x3fb3b1bb	1.4038614
185	0x3ec370b8	0.38171935
186	0xbf051b91	-0.5199519
187	0x3f4ce2eb	0.8003375
188	0x3e240dfe	0.16020963
189	0x402bed04	2.6863413
190	0xbfdf7556	-1.7457683
191	0x3f88d678	1.0690451
192	0x3fa07693	1.2536186
193	0x3f470d79	0.7775493
194	0x3ec97ce8	0.39353108
195	0x3f1308e4	0.5743544
196	0x4011fac4	2.2809305
197	0x3ef59de9	0.47972038
198	0x3f9113f7	1.1334218
199	0x3f82fd4f	1.0233554
200	0x3ef2bb1a	0.47408372
201	0x3fda8aaa	1.7073567
202	0x3f595ba7	0.84905475
203	0x3de19731	0.110151656
204	0x3ea71fe3	0.32641515
205	0x3f7689e9	0.96304184
206	0x3ef78b7e	0.48348612
207	0x3fad94f2	1.356108
208	0xbf927f81	-1.1445161
209	0x3eeef225	0.46669117
210	0x3f4f8ab8	0.81071043
211	0x3f8518f5	1.0398241
212	0xbe1e3f9f	-0.15453957
213	0xbf3bab5a	-0.73308337
214	0xbdf228d3	-0.11824193
215	0x402609bf	2.5943449
216	0xbfb2d1fa	-1.397033
217	0x3fb4f203	1.4136356
218	0xbeeeca78	-0.46638846
219	0x3e30d57b	0.17268936
220	0x3f082837	0.53186363
221	0x3f47115b	0.7776086
222	0x3f857e32	1.0429137
223	0x3f6af89d	0.91785604
224	0x3f41af27	0.75657886
225	0xbeea6da2	-0.45786768
226	0xbe896afb	-0.26839432
227	0xbf4e01a7	-0.8047127
228	0xbf504293	-0.81351584
229	0xbf667de4	-0.90035844
230	0x3fb46124	1.4092145
231	0xbf187154	-0.59547925
232	0xbf9a89d8	-1.2073317
233	0x3f2e5b0c	0.68107677
234	0xbc456ebe	-0.012050329
235	0xbf41f35c	-0.7576196
236	0xbe95cfce	-0.29260105
237	0x3dda1a9a	0.10649605
238	0x3ea0bccf	0.3139405
239	0xbf547b67	-0.830008
240	0xbf75c1d6	-0.95998895
241	0xbf6f2a83	-0.9342424
242	0xbe73874d	-0.23782082
243	0x3faa05f7	1.328307
244	0xbfdf7844	-1.7458577
245	0xbf474d6c	-0.7785251
246	0xc001c663	-2.0277336
247	0xbfa587fc	-1.2932124
248	0xbf8b4f33	-1.0883545
249	0xc0171f8d	-2.3613007
250	0x40177580	2.3665466
251	0xbe95b539	-0.29239824
252	0x3e04952a	0.12947527
253	0x3f45f0b7	0.77320427
254	0xbf9b3b97	-1.212756
255	0x3d885b1b	0.06658002

conv1.3.kernel f4 [64, 1, 3, 3]
0	0x3f3817f1	0.7191153
1	0xbf472d47	-0.7780346
2	0x4033c21d	2.8087227
3	0x3f740dc1	0.95333487
4	0x3d94ffcb	0.07275351
5	0x3e69facd	0.22849579
6	0xbf43d132	-0.7649108
7	0xbe6dc986	-0.23221406
8	0x3fc740b3	1.556662
9	0xbe36cd18	-0.17851675
10	0xbe014436	-0.12623677
11	0xbffe71a7	-1.9878434
12	0xbf902c2d	-1.1263481
13	0x3ffe3141	1.9858781
14	0xbf88259b	-1.0636476
15	0xbf4f29dc	-0.8092325
16	0xbf95e113	-1.1709312
17	0x3fc24b3a	1.5179207
18	0xc013ccdb	-2.3093784
19	0x3e06cb16	0.13163409
20	0xbb00b89e	-0.001964129
21	0x3f9b7b9b	1.2147096
22	0x3e11c09f	0.14233635
23	0x3fa03a55	1.2517802
24	0xbf0dc3ff	-0.5537719
25	0x3faa5b41	1.3309098
26	0x3ed7a17b	0.42115387
27	0x3f47988b	0.7796714
28	0xbf2ffee4	-0.6874831
29	0xbe189275	-0.14899619
30	0xbf6c7547	-0.9236645
31	0xbea8409d	-0.32861796
32	0xbe4936de	-0.19649836
33	0x3fbffd3f	1.499916
34	0x3f9d4d27	1.228917
35	0xbf8432e5	-1.0328032
36	0x3b3c9007	0.002877237
37	0x3e9dbcf1	0.30808213
38	0xbf95adea	-1.1693699
39	0xc0106604	-2.2562265
40	0xbfb11fa2	-1.3837779
41	0xc041c266	-3.0274901
42	0xbfa1ad9e	-1.2631109
43	0x3f188e19	0.59591824
44	0xbe116a08	-0.14200604
45	0xbeaa2cb4	-0.3323723
46	0x402bafc6	2.6826034
47	0x3e9e4361	0.3091078
48	0x3ffd1fd2	1.9775336
49	0x3f6383ab	0.88872784
50	0xbece4aa8	-0.40291333
51	0x3ee7d9c0	0.45283318
52	0x3ee6fbf9	0.45114115
53	0xc010d8e1	-2.2632372
54	0x3f3acfc0	0.7297325
55	0x3f286e29	0.6579309
56	0xbf26560c	-0.6497505
57	0x3ebc1371	0.36733583
58	0x3f92b3e4	1.1461148
59	0x3f586106	0.84523046
60	0xbf2b926a	-0.67020285
61	0x3faec434	1.3653626
62	0x3f16113a	0.58620036
63	0x3f3db761	0.7410794
64	0x3f12e64e	0.5738267
65	0x3fb6fa66	1.4295166
66	0xc0118106	-2.2735
67	0xbfccc71e	-1.5998266
68	0xbe635875	-0.22201712
69	0x3e037baf	0.1284015
70	0xbfe04ac5	-1.7522818
71	0xbf607b69	-0.8768831
72	0x3ca85f48	0.020553246
73	0x3f903c68	1.1268435
74	0x3f83a9aa	1.0286152
75	0x3fda9cd2	1.7079108
76	0xbf45a3e0	-0.7720318
77	0xbf1533ce	-0.5828217
78	0xbfb3a3b3	-1.4034332
79	0x3fa04d88	1.2523661
80	0x3ff79dbc	1.9345012
81	0xbe8cabad	-0.27474728
82	0x400d934d	2.2121155
83	0x40469e20	3.1034012
84	0x3eb33373	0.3500019
85	0x3fb0757f	1.3785857
86	0x3fbd5739	1.4792243
87	0xbdf9241f	-0.12165093
88	0x3e9b7561	0.3036299
89	0x3f0ea8fe	0.5572661
90	0xbfc7a610	-1.5597553
91	0x3e603e52	0.21898773
92	0xbc9e22e8	-0.019303754
93	0x3f451455	0.7698415
94	0x3f2feb89	0.68718773
95	0x3f0f2855	0.55920917
96	0x3dcedcef	0.101007335
97	0x3f115bcf	0.56780714
98	0x3f54f4a9	0.8318582
99	0xbfda3351	-1.704691
100	0x3e030d85	0.12798126
101	0xbd8a8bba	-0.06764932
102	0xbf04d5b2	-0.51888573
103	0x3f9d11b8	1.2271032
104	0xbe95ba6d	-0.29243794
105	0xbe0eae0a	-0.13933578
106	0xbf258daf	-0.64669317
107	0x3f4aed73	0.7926857
108	0x3e58d55e	0.21175143
109	0xbeec6590	-0.46171236
110	0x3e47938f	0.19489883
111	0x3f4cc84c	0.7999313
112	0x3f80cc37	1.0062321
113	0xbfb0c073	-1.3808731
114	0x3f38bfbb	0.7216756
115	0x3eb95a60	0.36201763
116	0xbed38acf	-0.4131684
117	0x4003bac5	2.0582745
118	0xc017043d	-2.3596337
119	0x3e731d77	0.23741709
120	0x3f0a4a07	0.54019207
121	0xbf49bd7c	-0.78804755
122	0xbfbbb999	-1.4666015
123	0xbf9d5917	-1.2292813
124	0x3c1577b9	0.009122782
125	0x3fa1f4c4	1.2652822
126	0x3f4a531b	0.7903306
127	0x4012748b	2.2883632
128	0x3da90c98	0.08254355
129	0x3fae5f13	1.3622764
130	0x3fc26556	1.5187175
131	0x3f14cd79	0.58126026
132	0xbf51ed75	-0.82002956
133	0x3e310e84	0.17290694
134	0xbf9cda35	-1.2254092
135	0xbdefe83f	-0.11714219
136	0xbe8ea237	-0.27858135
137	0x3f4e6012	0.8061534
138	0x3d7ed5bd	0.062215555
139	0x3e9121b8	0.28346038
140	0xbfaec0b6	-1.3652561
141	0xbf00c0c2	-0.50294125
142	0x3f0c3b21	0.54777724
143	0x3ea4b437	0.32168743
144	0x3e01932d	0.126538
145	0x3e671e72	0.22570208
146	0x3ec2e4c5	0.38065162
147	0xbf81329e	-1.0093572
148	0xbf1420e9	-0.57862717
149	0x3e945163	0.28968343
150	0x3d4c33bf	0.049854036
151	0xbf33a6e7	-0.7017655
152	0xbee4d830	-0.44696188
153	0x3c90e1ec	0.017685853
154	0x3f9e58ec	1.2370887
155	0x3ee22f22	0.44176584
156	0x3fb9808b	1.4492353
157	0x3dc911ca	0.09817846
158	0x3f8bfb64	1.0936093
159	0xbd977b36	-0.073965475
160	0xbf412d54	-0.7545979
161	0xbebd614f	-0.36988303
162	0x400301a0	2.0469742
163	0xbeb14244	-0.3462087
164	0xbfefd761	-1.8737603
165	0x3fb9c2b2	1.4512541
166	0x3f23c09a	0.6396576
167	0x3f71b00e	0.94409263
168	0xbfe2f386	-1.7730567
169	0xbfaeea49	-1.3665248
170	0x3f881002	1.0629885
171	0x3f3a2ed4	0.72727704
172	0xbfc3ddf5	-1.5302111
173	0xbe8c8af1	-0.27449754
174	0xbf87a233	-1.0596374
175	0x3eab17ff	0.33416745
176	0xbf41de30	-0.75729656
177	0xbff2e745	-1.8976828
178	0xbef618f9	-0.48065928
179	0x3e33aab1	0.17545582
180	0x3fb1e6a1	1.3898507
181	0x3eb96328	0.36208463
182	0x3d2784f2	0.04089827
183	0xbeaacadd	-0.33357897
184	0x3e6c7a2f	0.23093484
185	0xbfd492c3	-1.6607288
186	0x3fc2a5e2	1.5206873
187	0x3f01ceb7	0.50706047
188	0xbfea6afa	-1.8313897
189	0xbf934571	-1.1505567
190	0x3ef549db	0.4790791
191	0xbd9f59bc	-0.07780787
192	0xbd856526	-0.06513433
193	0x3f305736	0.68883073
194	0x3fcee4dd	1.6163594
195	0x3f9bf90b	1.2185377
196	0x3ead4d20	0.33847904
197	0xbe6c570a	-0.23080078
198	0x3f1024f7	0.56306404
199	0x3f3d2c14	0.7389538
200	0x3e0cb64d	0.13741417
201	0x3fd3ff42	1.6562274
202	0xbf8b263e	-1.0871046
203	0xbdff7786	-0.12473969
204	0x3f99bef0	1.2011395
205	0x3e222605	0.15834816
206	0x4051782a	3.2729592
207	0xbe836d15	-0.2566916
208	0xbea3cb9c	-0.3199128
209	0x3f5680ce	0.8379029
210	0xbee424f7	-0.44559452
211	0xbf334128	-0.70021296
212	0xbf86c6f5	-1.0529467
213	0xbeff423a	-0.49855214
214	0xbfd0469c	-1.6271548
215	0xbec404e3	-0.38284978
216	0xbe9ab3e0	-0.3021536
217	0xbd078ef7	-0.033095326
218	0x3984b3e8	0.00025311043
219	0xbf344fac	-0.7043407
220	0xbf8ba727	-1.0910386
221	0x3f603298	0.875772
222	0xc005b6ad	-2.0892746
223	0x3e9992f9	0.29994944
224	0x3faef636	1.3668888
225	0xbfa14dd5	-1.2601877
226	0x3f4c7352	0.79863465
227	0x3f3773b8	0.7166095
228	0xbcbc8ea3	-0.023017233
229	0xc00c2abf	-2.190109
230	0x3fcd821e	1.6055334
231	0xbeb543e9	-0.35403374
232	0x3f8da130	1.1064816
233	0xbf04b95f	-0.51845354
234	0x3f7d74c7	0.99006313
235	0xbefb67f2	-0.4910274
236	0xbeaf885b	-0.34283718
237	0xbf4503f8	-0.7695918
238	0x3ec7d28c	0.39027822
239	0x3e6cb87d	0.23117252
240	0x3f0d053b	0.55086106
241	0xbf02f5a0	-0.51156044
242	0x3db3a426	0.08771543
243	0xbfa15e8d	-1.260698
244	0x3f9929d4	1.196589
245	0xbf6f2cc7	-0.934277
246	0x3e8bf7bd	0.27337447
247	0x3f931eba	1.1493752
248	0x3e3f1c1d	0.18663068
249	0xbf2ad872	-0.6673652
250	0xbf4421e4	-0.76614213
251	0x3f199a89	0.60001427
252	0x3e0cc95b	0.13748686
253	0x3e9f63a3	0.31130704
254	0x3cf9f111	0.030510457
255	0x3f4f0ee4	0.80882096

conv1.4.kernel f4 [64, 1, 3, 3]
0	0xbc6b4499	-0.014359617
1	0xbc14c1b8	-0.009079389
2	0x3ddc484a	0.107559755
3	0xbec4546f	-0.38345668
4	0xbd151582	-0.036397465
5	0xbf3efa0f	-0.7460031
6	0xbf3ed041	-0.7453652
7	0xbfd6fed2	-1.6796515
8	0x3f9345eb	1.1505712
9	0xbf9bef61	-1.2182428
10	0xbf394aa5	-0.72379524
11	0x3f401f42	0.75047696
12	0xbf96a54a	-1.1769192
13	0xbd93f685	-0.07224754
14	0xbf800db2	-1.000418
15	0xbdcd252b	-0.10016855
16	0x3f26bd45	0.6513255
17	0xbf061955	-0.52382404
18	0xbf87c92d	-1.0608269
19	0x3f913329	1.1343738
20	0xbec4a0a3	-0.38403806
21	0xbd0ebaa0	-0.03484595
22	0x3eff0761	0.49810317
23	0xbf0cbca9	-0.5497537
24	0xbfdc8ab6	-1.7229831
25	0x3dd57356	0.10422389
26	0x3f08991f	0.53358644
27	0x3ec882b9	0.39162233
28	0xbd77ff14	-0.060545996
29	0xbeab5bba	-0.3346842
30	0xbeae873e	-0.34087557
31	0xbe103a18	-0.14084661
32	0x3fe8edcc	1.819757
33	0xbe70691f	-0.234776
34	0xbfe7dcf1	-1.8114301
35	0xbedda576	-0.432903
36	0x3ffe3abd	1.9861676
37	0xbf09ca97	-0.5382475
38	0xbfa25228	-1.2681322
39	0xbe991387	-0.2989771
40	0xbf0201a8	-0.5078378
41	0x3df138ff	0.11778449
42	0xbfea7003	-1.8315433
43	0x3fc0f488	1.5074625
44	0x4001507a	2.020537
45	0xbf82931b	-1.0201143
46	0x3fbcf2cd	1.4761597
47	0x3ee27ad6	0.4423434
48	0xbe8893bf	-0.2667522
49	0x3eef91a6	0.46790808
50	0xbfed9d64	-1.8563657
51	0x3f991ae0	1.1961327
52	0xbf0d1d89	-0.5512319
53	0x3f190b57	0.5978293
54	0x3f3a7a87	0.7284321
55	0xbe8ae186	-0.27125186
56	0xbf415f1d	-0.75535756
57	0x3f23cb79	0.6398235
58	0x3fa3a451	1.278452
59	0x3ec0b4bf	0.37637898
60	0xbfc40998	-1.5315428
61	0x3f792d95	0.9733518
62	0x3edddd09	0.433327
63	0x3fe14011	1.7597677
64	0xbfd01799	-1.6257201
65	0xbdd3a50b	-0.10334214
66	0x3dac68fd	0.084184624
67	0xbfda0e07	-1.7035531
68	0x3f63b315	0.8894513
69	0x3f36ac35	0.7135652
70	0x3efac817	0.4898078
71	0xbfbcf41e	-1.4761999
72	0x3ed91318	0.4239738
73	0xbe67d781	-0.22640802
74	0x3e97fdf4	0.29685938
75	0x3f3d7e15	0.7402051
76	0xbf0ec073	-0.55762404
77	0x3fb27e94	1.3944879
78	0xbf64cb85	-0.89373046
79	0xbe524ead	-0.20537825
80	0x3e871883	0.26385888
81	0x3faa3ab9	1.3299171
82	0x3f56bca6	0.83881605
83	0xbf6826ef	-0.9068441
84	0x3f76ddd5	0.9643224
85	0xc01da240	-2.463028
86	0x401187ec	2.273921
87	0x3e75a96c	0.2399041
88	0x3f0d4bc2	0.5519372
89	0x3f3874a4	0.7205298
90	0x3d1ab453	0.037769627
91	0x3e1d58ba	0.15365878
92	0xbc8876f5	-0.016658286
93	0x3e4f6ad5	0.20255597
94	0x3ffcea88	1.9759073
95	0xbfac8559	-1.3478194
96	0xbddfe165	-0.109316625
97	0x3eea9194	0.45814192
98	0x3fa7b613	1.310244
99	0xbf846fe7	-1.034665
100	0xbf5da2d2	-0.8657657
101	0xbf33cf4a	-0.70238173
102	0x3f2f8cf2	0.6857444
103	0x3dfbaa8b	0.12288388
104	0xbfc5e509	-1.5460521
105	0x3f3b729d	0.7322176
106	0xbfacbb7a	-1.3494713
107	0xbf44a8f8	-0.76820326
108	0x3f8eac3a	1.1146309
109	0xbf224a1a	-0.6339432
110	0xbf814293	-1.0098442
111	0xbfa5aa27	-1.2942551
112	0xbf2ec445	-0.68268234
113	0xbf8037e8	-1.0017061
114	0xbf553ddf	-0.8329753
115	0x3f03a181	0.5141831
116	0xbf871140	-1.0552139
117	0xbf5d14f3	-0.8636009
118	0xbfa78db4	-1.3090119
119	0xbe34c859	-0.17654552
120	0x3eb87f39	0.36034563
121	0xbfc58dc1	-1.5433885
122	0x3e9d9311	0.30776265
123	0x3f65bad8	0.89738226
124	0x3f070263	0.52738017
125	0xbea07b35	-0.31344
126	0xbf01b972	-0.5067359
127	0xbfc1c3bc	-1.5137858
128	0x3ed94bdf	0.42440698
129	0x3fb9d964	1.4519467
130	0x3e4c0da8	0.19927084
131	0x3ead2141	0.33814433
132	0xbf8c5bf4	-1.0965562
133	0x3ef21108	0.4727862
134	0xbf7afcf2	-0.98042214
135	0x3d76df9a	0.060271837
136	0x3ea58e27	0.32335016
137	0x3f3f95a1	0.7483769
138	0x3ea766b5	0.32695547
139	0x3f63948e	0.8889855
140	0x3f2a65b8	0.6656146
141	0xbf5647f0	-0.8370352
142	0xbeeb918f	-0.4600949
143	0x3e5bf6b6	0.21480832
144	0xbf51e3ed	-0.8198841
145	0xbf04d298	-0.5188384
146	0x3f7702b7	0.9648852
147	0x3bb70a70	0.005585961
148	0xbf80327b	-1.0015405
149	0xbfa4317b	-1.28276
150	0xbf9314a7	-1.1490678
151	0xbec87420	-0.39151096
152	0xbfabd777	-1.342513
153	0x3d6cd921	0.057824258
154	0x3f16a1d1	0.5884066
155	0x3f4807cf	0.78136915
156	0xbfa9bedb	-1.326137
157	0x3eb40f68	0.35168004
158	0x3ebd1ab8	0.36934447
159	0x3f542edb	0.82883996
160	0xbec67a03	-0.38764963
161	0x3f290d9f	0.6603641
162	0xbf44efe1	-0.76928526
163	0xbf91d791	-1.1393911
164	0x3ec6937b	0.38784394
165	0xbfe3af03	-1.7787784
166	0xbe1cf729	-0.15328659
167	0x3ef29ad0	0.47383738
168	0x3e09a13b	0.13440411
169	0xc0191f28	-2.3925266
170	0x3f21ceec	0.6320636
171	0xbf793763	-0.9735014
172	0xbeb4380a	-0.35199004
173	0x3d547ab0	0.051874816
174	0xbf3011cc	-0.68777156
175	0xbf3e2737	-0.7427859
176	0xbf55e5a5	-0.83553535
177	0x3e3d385c	0.1847853
178	0x3d857b1a	0.065176204
179	0xbfe220c7	-1.7666253
180	0x3f685032	0.9074737
181	0xbec6f258	-0.3885677
182	0xbfb7c634	-1.4357362
183	0xbf5e9292	-0.869424
184	0xbcd6958c	-0.026194356
185	0xbef42dc4	-0.47691166
186	0xbed32500	-0.41239166
187	0xbfc8112c	-1.563024
188	0xbead34d4	-0.33829367
189	0x3fab948e	1.340471
190	0x3ec2cbc2	0.3804608
191	0x3fcae031	1.5849668
192	0x403269d4	2.7877092
193	0x3eb4e01c	0.35327232
194	0x3f63c099	0.88965756
195	0x3f569899	0.83826596
196	0x3e088f12	0.13335827
197	0xbf3890ba	-0.72095835
198	0xbfaddf61	-1.3583795
199	0xbfaf215f	-1.3682059
200	0x40061881	2.0952456
201	0x3e8613c9	0.2618697
202	0x3fd18842	1.6369708
203	0x3f9f205c	1.243175
204	0xbe0f429a	-0.1399025
205	0x3dbdccb8	0.09267563
206	0xbdd67781	-0.10472012
207	0x3f096889	0.53675133
208	0x400a3e8f	2.1600683
209	0x3e911135	0.2833344
210	0xbe1df451	-0.1542523
211	0xbf935ad7	-1.1512097
212	0x3f43fdc9	0.7655912
213	0x3fd4f320	1.6636696
214	0x3f49953c	0.7874334
215	0x3d078fa2	0.033095963
216	0xbd2a9489	-0.04164556
217	0xbfdeee30	-1.7416439
218	0x3e71201e	0.23547408
219	0xbfd66cf2	-1.6751997
220	0x3ea954bc	0.3307246
221	0x3f66ef44	0.9020884
222	0xbee3b100	-0.44470978
223	0x3f77fc5c	0.96869445
224	0xc02177ee	-2.522945
225	0xbf023895	-0.5086759
226	0xbf093687	-0.5359883
227	0xbeb49313	-0.3526846
228	0xbf24f60f	-0.64437956
229	0xbf1cd082	-0.6125566
230	0xbf393a90	-0.72354984
231	0xbfa2a88a	-1.2707684
232	0xbf01cc57	-0.5070242
233	0xbeecd767	-0.4625809
234	0x3e25dcfb	0.16197579
235	0xbfb2043f	-1.3907546
236	0xbfad2b57	-1.3528851
237	0xbec17a86	-0.3778879
238	0x3f80be5a	1.0058091
239	0xbf98576e	-1.1901681
240	0x3ea3421b	0.31886372
241	0x3f168f3d	0.58812314
242	0xbfc0a308	-1.5049753
243	0xbd996538	-0.07490009
244	0x3f7a7c46	0.97845876
245	0xbf1e2744	-0.61778665
246	0x3f3ee981	0.7457505
247	0x3f7328a7	0.94983906
248	0x3f0885b3	0.5332901
249	0xbeaa4860	-0.33258343
250	0x3f7673e0	0.9627056
251	0xbfbc178b	-1.4694685
252	0x3fce6044	1.6123128
253	0xbed79abd	-0.42110243
254	0xbef175aa	-0.47160083
255	0xbf1099c7	-0.56484646

conv1.5.kernel f4 [64, 1, 3, 3]
0	0x3ce1cb9d	0.02756291
1	0xbb83d9bd	-0.004023759
2	0x3edc21b6	0.4299447
3	0xbe0f6b5b	-0.14005797
4	0xbe9fae81	-0.31187823
5	0xbf3815bb	-0.7190816
6	0x3f11f51d	0.5701464
7	0xbe66c1ef	-0.22534917
8	0x3e3c8e45	0.18413647
9	0xbf64036d	-0.8906773
10	0x3e9b0152	0.30274445
11	0x3f72e157	0.9487509
12	0x3f75a2fd	0.95951825
13	0xbf4cecec	-0.80049014
14	0x3f7b46bc	0.9815481
15	0x3f8cdea6	1.1005447
16	0x3e1fb0a9	0.15594734
17	0xbf06d943	-0.52675265
18	0x3fce11a4	1.6099133
19	0xbc9b45d0	-0.018954188
20	0x3f67be03	0.9052431
21	0x3f82d763	1.0221981
22	0x3ecbf560	0.39835644
23	0xbe8d58d3	-0.2760683
24	0xbf8b9f21	-1.0907937
25	0x3f8d8880	1.1057281
26	0x400d8ade	2.2116008
27	0x3e0a4056	0.13501105
28	0x3f869c29	1.0516406
29	0x3f834f65	1.0258604
30	0x3f8bd3a0	1.0923958
31	0xbce263e6	-0.027635526
32	0x3e9096be	0.28240007
33	0xbea1af4c	-0.31579053
34	0x3f26e284	0.65189385
35	0x3ff446f1	1.908415
36	0xbf390bb4	-0.7228348
37	0x3eb00412	0.34378105
38	0xbfd8d940	-1.69413
39	0xc011f20c	-2.2803984
40	0x3e552327	0.20814191
41	0xbfbdc6a7	-1.4826249
42	0xbff504a3	-1.914204
43	0x3fa47b73	1.2850174
44	0xbe1836d9	-0.14864673
45	0x3f12ef3b	0.57396287
46	0xbed400a9	-0.41406754
47	0x3fe6c156	1.8027751
48	0x3eb864a6	0.3601429
49	0xbf690b60	-0.9103298
50	0x3eff43b5	0.49856344
51	0x3f221f8d	0.6332939
52	0xbfd1b8b5	-1.6384493
53	0x3fb363de	1.4014852
54	0x3f878aca	1.058923
55	0xbea120cf	-0.31470343
56	0x3f4a32f1	0.7898398
57	0x3eb99a07	0.36250326
58	0x3f66680c	0.9000251
59	0xbe62255f	-0.22084568
60	0xbe1d1f75	-0.15344031
61	0x3f65333b	0.89531296
62	0x3f98b869	1.1931278
63	0x3f9fc0de	1.2480733
64	0x3f56da96	0.83927286
65	0x3fa9348d	1.3219162
66	0x3ebd5ff8	0.3698728
67	0x3f92df23	1.1474346
68	0x3f2f07d3	0.68371314
69	0x3faef5d0	1.3668766
70	0xbd8e9fc2	-0.06964065
71	0x3fab6110	1.3388996
72	0xc02670db	-2.6006382
73	0xbdc4f38d	-0.09616766
74	0xbf78527c	-0.9700086
75	0xbf80ba04	-1.0056767
76	0x3f2070d6	0.62672174
77	0x3c1970b9	0.009365254
78	0xbfca83e4	-1.58215
79	0xbf62a915	-0.8853925
80	0xbfa697c1	-1.3015062
81	0xbecc0d6f	-0.39854
82	0xbd96bb49	-0.073599406
83	0x3f840e62	1.0316889
84	0x3f3a8cbf	0.7287101
85	0x3ea3e3a1	0.32009605
86	0x3f964425	1.1739546
87	0x3f938ef6	1.1528003
88	0xbf06766a	-0.52524436
89	0x3f2b3c4c	0.6688888
90	0xbf059f36	-0.5219606
91	0x3e125b08	0.14292538
92	0x3fea2265	1.8291746
93	0x3ebab7f9	0.36468485
94	0x3e8315c3	0.2560254
95	0x3f911430	1.1334286
96	0x3fe24bef	1.7679423
97	0x3f8047f0	1.0021954
98	0xbfba6c75	-1.4564348
99	0x3fcf5d3a	1.6200325
100	0x3f3014e4	0.68781877
101	0x3ed21766	0.41033477
102	0x3f8b411b	1.0879244
103	0x3f67e7a1	0.9058781
104	0x3ee67852	0.45013672
105	0x3f858d59	1.0433761
106	0xbd1e14b7	-0.038593974
107	0x3fa78bf9	1.3089591
108	0xbfbae3e4	-1.4600797
109	0x3fd04f3b	1.6274179
110	0x3f171e99	0.59031063
111	0x3fa35b3e	1.276222
112	0x3e6ca1cd	0.23108597
113	0x3d5a08b7	0.053230967
114	0x3ebad331	0.3648925
115	0xbdc3f3f6	-0.09568016
116	0x3f4c6be2	0.79852116
117	0xbf267d71	-0.6503516
118	0x3fac71d0	1.3472233
119	0xbe85bc11	-0.26120046
120	0x3f80af2f	1.0053462
121	0xbf6c7aae	-0.92374694
122	0x3f238f12	0.6389018
123	0x3ee08f88	0.43859506
124	0xbe5767a3	-0.21035628
125	0x3ece5d70	0.40305662
126	0x3f96a413	1.1768821
127	0xbefe954b	-0.49723276
128	0x3f465caa	0.77485144
129	0x3f95726d	1.1675545
130	0xbe50dbec	-0.20396394
131	0x3f7e81ea	0.99416983
132	0x3f538339	0.82622105
133	0xbda3e470	-0.08002555
134	0x3f759987	0.9593739
135	0xbfea4d44	-1.830483
136	0x3e18ad3d	0.14909835
137	0xbeff5f64	-0.49877465
138	0x3e26a3e0	0.16273451
139	0xbe5145ad	-0.20436735
140	0xbf046fb5	-0.5173295
141	0xbfc00aca	-1.5003293
142	0xbe89285e	-0.2678861
143	0xbf094528	-0.5362115
144	0x3e0550b2	0.13019064
145	0xbf06516c	-0.5246799
146	0xbeb82492	-0.359654
147	0xbfb4d9b9	-1.4128944
148	0x3f55b82e	0.8348416
149	0xbf195398	-0.5989318
150	0xbed42c67	-0.41440126
151	0x3bd9e413	0.006649503
152	0xbf5dd9db	-0.86660546
153	0xbfdaedd6	-1.7103832
154	0xbfce85b7	-1.6134557
155	0x3ea0a528	0.31376004
156	0xbec62d05	-0.38706222
157	0x3e25d06c	0.16192788
158	0xbf5cf5b8	-0.8631244
159	0x3eb9a934	0.36261904
160	0xbf5f1c85	-0.8715289
161	0xbfd06ab1	-1.628256
162	0x3f97dd0a	1.1864331
163	0x3fa7c372	1.310652
164	0x3fb522ef	1.4151286
165	0x3e9a29d6	0.30110043
166	0xbf7bbeec	-0.983382
167	0x3fb56703	1.4172062
168	0x3ffbce5b	1.967235
169	0x3f4b663f	0.7945289
170	0x3ff16437	1.8858708
171	0xbfbd0583	-1.4767307
172	0x3e4ed6b1	0.20199086
173	0xbf293520	-0.6609669
174	0xbf79e7cf	-0.97619337
175	0x3e30915a	0.17242947
176	0xbd1af370	-0.037829816
177	0xbe9a61f9	-0.30152872
178	0xbfad6de1	-1.3549157
179	0xbf46eff7	-0.7770991
180	0x3edf2984	0.4358636
181	0xbfbeb896	-1.4900081
182	0x3f6eeb4d	0.9332779
183	0x3ddad127	0.10684424
184	0x3e6d95f6	0.23201737
185	0xbf3439fe	-0.7040099
186	0x3e67ea69	0.22648014
187	0xbf05e8de	-0.5230845
188	0xbf1c56cf	-0.6106996
189	0x3f51b4a4	0.8191626
190	0x3eb1b54e	0.34708637
191	0x3f0316a8	0.51206446
192	0x3f0c0892	0.5470058
193	0xbf966201	-1.1748658
194	0x3d1c7a0e	0.038202338
195	0xbe197f38	-0.14989936
196	0x3e9efd67	0.31052706
197	0x3fd5b9f4	1.6697373
198	0xbdeb9a9b	-0.11504098
199	0xc01a0a79	-2.4068892
200	0xbf879f17	-1.0595425
201	0xbf87dfba	-1.0615151
202	0xc00a18ec	-2.157771
203	0xbfa4e7c6	-1.2883232
204	0xc05a324b	-3.4093196
205	0xbf352c16	-0.70770395
206	0xc0210a45	-2.5162518
207	0x3ffb4e9c	1.9633365
208	0x3f50156b	0.8128268
209	0x400b227c	2.1739798
210	0x3e80c950	0.2515359
211	0xbff73a17	-1.9314603
212	0x3f55987d	0.83435804
213	0x3fc39f4e	1.5282991
214	0x4015d161	2.3409045
215	0x3f99a855	1.2004496
216	0xbfbce80e	-1.4758317
217	0x3f495adf	0.78654283
218	0x400ea1f8	2.2286358
219	0x3fb64692	1.4240286
220	0x3f389b26	0.7211174
221	0x3df84771	0.12123001
222	0x3f910cd7	1.1332043
223	0xbe4c870a	-0.19973388
224	0xbdfe00db	-0.12402507
225	0x3d841e04	0.064510375
226	0xbf4112be	-0.75419223
227	0xbe71c8da	-0.23611775
228	0xbf8f7249	-1.1206752
229	0x3f1a51c5	0.6028102
230	0xbf89b369	-1.0757877
231	0x3ef448f6	0.47711915
232	0xbffbf340	-1.9683609
233	0x3e592269	0.21204533
234	0x3eac2def	0.33628795
235	0x3fd8dd3a	1.6942513
236	0xbfb515f9	-1.414733
237	0x3da8cfc8	0.08242756
238	0x3ef9014a	0.48633796
239	0x3f9fe4db	1.2491716
240	0x3f53ee9b	0.8278596
241	0xbeb91536	-0.36148995
242	0x3f6e171e	0.93004024
243	0x3f3d6b94	0.73992276
244	0xbf043057	-0.5163626
245	0xbebdcc82	-0.3707009
246	0xbf936973	-1.1516556
247	0xbca62cf8	-0.020285115
248	0x3f73a343	0.9517099
249	0x3ecd454b	0.4009193
250	0xbd483b72	-0.048884816
251	0xbed8f108	-0.42371392
252	0x4000c64d	2.0121033
253	0xbf1999a1	-0.60000044
254	0x400de460	2.217064
255	0xbe0ac1cf	-0.13550495

conv1.6.kernel f4 [64, 1, 3, 3]
0	0xbd86f988	-0.06590563
1	0x3fd42bf6	1.6575916
2	0x3e25a9a5	0.16177996
3	0xbf92aadb	-1.1458391
4	0x3fe76561	1.8077813
5	0x3e2693e5	0.16267355
6	0x3f723576	0.94612825
7	0x3fe7cd73	1.8109573
8	0x3e63f41e	0.22261092
9	0xbe92e24a	-0.2868827
10	0xbeab463e	-0.33452028
11	0x3f0dbb4e	0.5536393
12	0xbf04dee3	-0.519026
13	0x3e25753d	0.16158004
14	0xbf09b84e	-0.5379685
15	0xbcb1344a	-0.021631379
16	0xbff6b7e3	-1.9274868
17	0xbfca0914	-1.578402
18	0x3e0dfda1	0.13866283
19	0xbea7f6f3	-0.32805595
20	0xbf73b2b3	-0.9519455
21	0xbec0cf13	-0.37657985
22	0xbe9f6eb0	-0.31139135
23	0x3e97d2c4	0.2965299
24	0xbe91bdf8	-0.28465247
25	0xbf732c35	-0.9498933
26	0xbfc94b79	-1.5726157
27	0xbfe31276	-1.7740009
28	0x400ef08e	2.2334323
29	0xc00f3edc	-2.2382116
30	0xbfb31f60	-1.399395
31	0x3fe199fe	1.762512
32	0x3fdd2921	1.7278177
33	0xbf94e7fe	-1.1633298
34	0x3e6c739b	0.23090975
35	0x3ff5b222	1.9194987
36	0x3f12874e	0.5723771
37	0xbf55520a	-0.83328307
38	0xbfcedf0e	-1.6161821
39	0xbf29444a	-0.66119826
40	0xbf756098	-0.95850515
41	0x3fc461aa	1.5342305
42	0x3fef55b4	1.869803
43	0xbf74fec2	-0.9570123
44	0xbe845389	-0.25844982
45	0xbd4e17ec	-0.050315782
46	0x3f2b600c	0.6694343
47	0x3e3d2613	0.18471555
48	0x3f1838a3	0.5946142
49	0x3f849639	1.0358344
50	0xbf986fa8	-1.1909075
51	0x3ea76799	0.32696226
52	0xbf167694	-0.58774686
53	0xbe8a64d1	-0.27030042
54	0x3e2d7683	0.1693974
55	0xbe28cc50	-0.16484189
56	0xbfaa01b3	-1.3281769
57	0x3e8cf4f8	0.27530646
58	0xc023d284	-2.5597239
59	0xbefc7ea4	-0.4931537
60	0xbc5a4dc2	-0.013324203
61	0x3f333b81	0.7001267
62	0x3f8274ec	1.0191932
63	0x3e2a8d57	0.1665548
64	0x3e8b474a	0.27202827
65	0x3e605966	0.21909103
66	0xbd80f970	-0.062975764
67	0x3fc9c73d	1.5763928
68	0x403fa360	2.9943466
69	0xbec634ac	-0.3871206
70	0x3fa9f73e	1.3278577
71	0x3f24153c	0.640949
72	0x3e62f885	0.22165115
73	0xbf10c13f	-0.5654487
74	0xbf2aa687	-0.6666035
75	0x3fe440be	1.7832258
76	0x3f2077b7	0.6268267
77	0x3fceddd1	1.6161443
78	0x3f88c838	1.0686102
79	0x3e98219e	0.29713148
80	0x3f80253f	1.0011367
81	0xbee25ba2	-0.44210535
82	0x3f12a946	0.5728954
83	0x3f79a8a2	0.9752294
84	0x3f6ed751	0.93297297
85	0x3ff4af88	1.9116068
86	0x3f158564	0.5840666
87	0x3dbb6b75	0.09151355
88	0xbfb1bba3	-1.3885387
89	0xbe31831d	-0.17335172
90	0x3f6923ca	0.91070235
91	0xbe11b0ae	-0.14227554
92	0x3fb4b19a	1.41167
93	0xbdef1cf7	-0.116754465
94	0xbf95fe96	-1.1718318
95	0x3f10efd6	0.5661596
96	0xbf5c2352	-0.85991395
97	0x3f12a77d	0.57286817
98	0x4030cc77	2.7624795
99	0xbf960422	-1.1720011
100	0xbe0889df	-0.13333844
101	0x3eb32ce6	0.34995192
102	0x3f825d68	1.0184755
103	0x3d892d41	0.066980846
104	0x3f89950e	1.0748613
105	0x3fea83ba	1.832145
106	0x3e0fa90f	0.14029334
107	0x3f9dcbf6	1.2327869
108	0x3f78505e	0.9699763
109	0xbeb970da	-0.3621891
110	0x3ef0c430	0.4702468
111	0x3f1ade60	0.6049557
112	0xbfb46124	-1.4092145
113	0xbe390cb5	-0.18071254
114	0xbf69b043	-0.9128458
115	0x3f733e9c	0.9501741
116	0xbfa3bcf0	-1.2792034
117	0xbf25a50e	-0.6470498
118	0xbfdbd093	-1.7173027
119	0x4015cc6d	2.3406022
120	0xbe48004d	-0.19531365
121	0x3eddad06	0.4329607
122	0xbf78aaef	-0.97135824
123	0x3dc2f93a	0.095201924
124	0x3f536f4b	0.82591695
125	0xbf9000a9	-1.1250201
126	0x3f462ca2	0.77411854
127	0xbfa9484a	-1.3225186
128	0xbf159113	-0.5842449
129	0x3eab6de8	0.3348229
130	0x3fa7133e	1.3052747
131	0x3ea6cdbd	0.3257884
132	0x3f80dbcd	1.0067078
133	0x3f4486dc	0.7676828
134	0x3fcd12a4	1.6021314
135	0xbe1242fe	-0.14283368
136	0x3e93ba09	0.2885287
137	0x3e9ae2ca	0.3025115
138	0x3f5ab74b	0.8543593
139	0xbfc93008	-1.5717783
140	0xbe9789d4	-0.29597342
141	0x3ec189fd	0.3780059
142	0xbf135bad	-0.5756176
143	0x3f317619	0.6932083
144	0x3fd01e1c	1.6259189
145	0xbf30f37b	-0.6912152
146	0x3eb91f23	0.36156568
147	0xbf416cbd	-0.75556546
148	0xc017f96d	-2.3745987
149	0x3f748712	0.955186
150	0xbf404ebe	-0.7512015
151	0x3ee42521	0.44559577
152	0xbf9b0e7c	-1.2113795
153	0xbf700cb5	-0.9376939
154	0xbf1a72b5	-0.6033128
155	0xbf4d32a5	-0.801554
156	0x3f98de06	1.1942756
157	0x3e28df1b	0.16491358
158	0xbf0bd901	-0.54627997
159	0xbf0851ea	-0.5324999
160	0x3e597d6e	0.21239254
161	0xbf27181c	-0.65271163
162	0x3db587ed	0.088638164
163	0xbed97d4b	-0.42478403
164	0xbfbc6619	-1.4718658
165	0x3ec60448	0.3867514
166	0x3e4578a0	0.19284296
167	0x3fe5c416	1.7950466
168	0xbf81c6c9	-1.013879
169	0x3f531a64	0.82462144
170	0xc03b4989	-2.9263632
171	0x3e7e1331	0.24812008
172	0x3f85e0ce	1.045923
173	0x3f2920d4	0.66065717
174	0xbfba8122	-1.4570658
175	0xbf2363a6	-0.63823926
176	0x3f5a8530	0.8535948
177	0x3fbeb374	1.4898515
178	0x3f42d7ce	0.7611054
179	0x4032dab7	2.7945993
180	0xbebddc19	-0.37081984
181	0x3fed2d39	1.8529426
182	0x3e9b532f	0.30336902
183	0x3f69a348	0.9126477
184	0xbf30d83d	-0.69079953
185	0x3e93d17d	0.28870764
186	0x3dce39ba	0.10069604
187	0xbf1014a8	-0.5628152
188	0xbf03717d	-0.51345044
189	0xbd13ec67	-0.036114123
190	0xbfb82c08	-1.4388437
191	0x3f698a62	0.9122678
192	0xbe2f0d0d	-0.17094822
193	0x3f4a6ce8	0.7907243
194	0x3f12a309	0.5728002
195	0xbe222e88	-0.15838063
196	0xbfd5c817	-1.6701688
197	0xbfa70185	-1.3047339
198	0x3f8f7678	1.1208029
199	0xbf16df9a	-0.5893494
200	0x3d3865a2	0.0450188
201	0xbf1e5046	-0.6184124
202	0xbfaac0ee	-1.3340127
203	0xbfa58fe4	-1.2934537
204	0x3dd99d09	0.10625655
205	0x3f5e6476	0.8687204
206	0xbec1e7f1	-0.3787227
207	0xbfc51eef	-1.5400065
208	0x3e7efeff	0.24901961
209	0x3dda867c	0.10670182
210	0xbf26bd95	-0.6513303
211	0xbe83d704	-0.2574998
212	0x3e932cbf	0.28745076
213	0xbf015f0b	-0.5053565
214	0xbf975acc	-1.1824584
215	0xbf87260c	-1.0558486
216	0x3f0bfc56	0.5468191
217	0xbf0e88f8	-0.5567775
218	0x3f1d0b2a	0.6134516
219	0x3ee5a85d	0.44855013
220	0x3ebeb881	0.3725014
221	0x3fcddc34	1.6082826
222	0xbf1ea151	-0.619649
223	0xbf148d27	-0.5802788
224	0x3ed27843	0.41107377
225	0xbfe3e476	-1.7804096
226	0xbf8a414e	-1.080118
227	0x3f78487b	0.96985596
228	0xbe6790f7	-0.22613893
229	0xbfa1fb3e	-1.2654798
230	0x3ed0b9be	0.4076671
231	0x3cf844c9	0.030306237
232	0xbf0c18d8	-0.5472541
233	0xbe21e5de	-0.15810344
234	0xbfe078db	-1.7536882
235	0x3fc70e83	1.5551304
236	0x3f3448dc	0.70423675
237	0x4013e164	2.3106318
238	0xbf305f6e	-0.68895614
239	0xbf4c2cc3	-0.797558
240	0x3eb39480	0.35074234
241	0xbd43da15	-0.0478154
242	0x3f867ce0	1.0506859
243	0xbf973cec	-1.1815467
244	0x3f08517a	0.53249323
245	0xbfeacb18	-1.8343229
246	0xbf1957da	-0.59899676
247	0xbec4c298	-0.38429713
248	0xbe8444d6	-0.25833768
249	0x3d505bf5	0.050868947
250	0xbca004cb	-0.019533535
251	0xbfa8abf8	-1.3177481
252	0x3f0d5cea	0.552199
253	0x3cfc33fd	0.030786509
254	0xbea473c4	-0.32119572
255	0xbf210393	-0.6289608
