Models/TCSVT_Encoder_Detail.model (torch_old, 37619 bytes, 10 tensors)

conv2.0.kernel f4 [64, 1, 3, 3]
000000 da ab 65 3f b2 33 17 bf ea 73 17 3f 3a 84 14 40
       0.8971535 -0.59063256 0.59161246 2.3205705
000010 10 ac 9a bf 59 9b 2a 3f 16 a8 14 3e 64 f4 da 3f
       -1.2083759 0.6664329 0.14517245 1.7105832
000020 9c 2d a0 bf bb b7 f7 bc ef 98 1a bf a7 4e 0d 3f
       -1.2513919 -0.030238977 -0.6038961 0.5519814
000030 87 27 b1 3e 23 5d d8 be 32 73 a3 bd d3 de 4b bf
       0.3460047 -0.42258558 -0.07980956 -0.7963688
000040 a7 3a 49 bf ba 8b 5d 3f 97 85 4e bf c0 d0 e6 bf
       -0.7860512 0.8654133 -0.8067259 -1.8032455
000050 c2 0b c6 3e 13 11 61 3f d9 d6 17 3e d7 a0 63 3e
       0.38680845 0.8791668 0.14828052 0.22229324
000060 9b 41 34 3f 82 a1 df 3f 7f 56 43 3f 2c 23 92 3d
       0.70412606 1.7471163 0.7630386 0.07135615
000070 a1 d3 df bf 88 6e 52 3f ae 94 1b 3f 4b be 83 bf
       -1.7486459 0.8219991 0.6077374 -1.0292448
000080 ec e0 1c c0 9f 97 c2 bf e9 e4 37 3f 6a d0 a0 bf
       -2.4512281 -1.5202521 0.71833664 -1.2563603
000090 d7 47 e5 be 64 0d 40 be 0f 81 7c be 56 6f 0d bf
       -0.44781372 -0.18755108 -0.24658607 -0.5524801
0000a0 a0 6b 50 3f cc e3 61 3f 16 b1 f2 bf f7 85 e7 bf
       0.8141422 0.88238215 -1.8960292 -1.8087758
0000b0 a6 a6 97 3e 48 21 c9 3f be ae 5b c0 d3 9b 01 be
       0.2961933 1.5713282 -3.4325404 -0.12657098
0000c0 6b 47 28 bf a7 9c f1 be f1 d7 f2 bf ea 0a 07 3f
       -0.65733975 -0.4718983 -1.897215 0.5275103
0000d0 18 cc d2 bf 0b 78 a7 be 84 e5 0a 3f 6d de ab 3d
       -1.6468534 -0.32708773 0.54256463 0.08392034
0000e0 37 23 96 bf 0f fd 95 3f 13 88 96 bf 85 37 8d be
       -1.1729497 1.1717852 -1.1760277 -0.2758142
0000f0 1b 49 84 3f cd 17 dc 3f 23 ec a3 bf 6a 92 6b 3f
       1.033481 1.7194763 -1.2806438 0.92020285
000100 35 1d 28 c0 13 e5 9f 3e 0d 82 9c 3e b0 00 6c bf
       -2.6267827 0.31229457 0.3056797 -0.9218855
000110 7e 04 5b 3f 23 3a 2e 3f 83 6f f7 3e fa c1 94 be
       0.8555373 0.6805746 0.48327264 -0.29054242
000120 02 9b 27 bd 72 62 ba bf c0 6f 84 be 36 01 8e 3f
       -0.04091931 -1.4561293 -0.25866508 1.109412
000130 e2 97 d7 be 85 e8 76 be bd e8 53 3f 78 44 58 be
       -0.42108065 -0.24112137 0.82777005 -0.21119869
000140 cf 47 3c bf bc 12 9d 3f e9 c5 4e 3f af 62 02 bf
       -0.7354707 1.2271342 0.80770737 -0.5093183
000150 c1 d3 8e be 7c 73 05 bf 49 b2 c5 be b8 46 98 bc
       -0.2789593 -0.5212934 -0.38612583 -0.018588409
000160 89 28 c8 3f 05 c4 c7 bf 2f b7 85 3f 7c b6 39 bf
       1.563737 -1.5606695 1.0446528 -0.72544074
000170 1a 65 e7 be 7f 99 b7 3f 8b e6 93 be 15 8f 9f 3e
       -0.45194322 1.4343718 -0.28886828 0.3116385
000180 cd 6a 94 be 31 dd 72 bd 20 04 0b 3e 70 0f 80 3f
       -0.28987733 -0.059292976 0.13575792 1.0004711
000190 95 8d a3 3f b6 68 03 bf 1b c0 d2 3d 05 17 8b bf
       1.2777582 -0.5133165 0.102905475 -1.08664
0001a0 c4 d7 17 be d3 e7 c0 bf 2f 90 04 c0 46 29 a8 be
       -0.14828402 -1.5070747 -2.0713003 -0.3284399
0001b0 3c b0 e0 bf 55 7c 1c 3f 1a 4c 89 3f ee 90 b1 3e
       -1.7553782 0.61127216 1.0726349 0.34680885
0001c0 57 69 df 3f fe dd 43 3f c1 62 db 3f 60 94 d1 3e
       1.7454022 0.7651061 1.7139512 0.40933514
0001d0 fc f9 ba 3d 9a e4 eb 3f 16 1e 0f be 48 1a 12 bf
       0.09129712 1.8429139 -0.1397632 -0.5707135
0001e0 d0 3e 11 bf c8 d3 03 bf 05 ee 14 bf e4 13 91 bf
       -0.5673647 -0.5149503 -0.5817569 -1.1334195
0001f0 48 1d 3f 3f bb 5f 91 3f af b3 93 3f 87 75 7a bf
       0.74654055 1.135734 1.153921 -0.9783558
000200 c8 d2 d0 be 19 bc 7b bf 68 08 b1 3d 92 89 8a 3f
       -0.40785813 -0.9833389 0.086441815 1.0823233
000210 57 0f b2 3d 99 6b ac bf 25 83 20 3f b3 dc b3 3f
       0.08694332 -1.3470336 0.6270011 1.4051727
000220 cc f4 55 3e 93 69 7f bf 99 02 6c bd b2 0c bc 3f
       0.20894164 -0.9977047 -0.057619665 1.4691374
000230 7b 95 fa bf 30 16 07 3f 7b 67 2b 40 cd 46 80 3e
       -1.9576868 0.5276823 2.678191 0.25054017
000240 69 1f 87 3f 08 dc 25 c0 1f fe 0a 40 60 73 76 bf
       1.0556461 -2.5915546 2.1717603 -0.962698
000250 0e 13 a1 3f 16 a4 b5 bf 14 ba 25 bf ce 0a cf be
       1.258394 -1.41907 -0.6473706 -0.4043793
000260 46 1f 9c 3e 4f 62 03 3f 27 37 58 bf af 8e 16 be
       0.3049261 0.5132188 -0.84459156 -0.14702867
000270 12 fe 64 3f a9 90 8a 3e 2d 16 92 3f bc 72 88 3f
       0.8945018 0.27063492 1.1413018 1.0660014
000280 b2 f0 b2 3e b5 16 20 bf a1 c0 3c 40 73 8f e9 be
       0.3494926 -0.6253465 2.9492571 -0.45617256
000290 d0 4c a0 3f 7a ab 1a c0 b3 e8 a9 bf cd 28 36 3f
       1.2523441 -2.416716 -1.3274139 0.7115601
0002a0 3b 73 51 3f 26 73 55 3f 66 e9 1f bf 4c 4c 86 bf
       0.8181645 0.8337883 -0.6246551 -1.0492034
0002b0 d7 47 d7 3e e5 77 51 bf 3d 9a d8 bf 9b c8 fd be
       0.42046997 -0.8182357 -1.692207 -0.49567112
0002c0 37 77 06 be 23 71 8e bf 1c 8b da be 01 04 50 3f
       -0.13131414 -1.1128277 -0.42684257 0.8125611
0002d0 fb 5c 54 bf 8e 39 5f be 4d 80 83 bf 99 43 d9 bf
       -0.82954377 -0.21799299 -1.0273529 -1.6973754
0002e0 ed 48 3a bd 6c 5e 30 3f 76 a7 35 3c 4e c0 21 40
       -0.045479704 0.68894076 0.011087289 2.5273623
0002f0 b3 32 d7 be 4c a3 6b be eb df 0e bf bf 03 0d be
       -0.42030868 -0.23011512 -0.5581042 -0.1377096
000300 f7 70 14 3f 8a 72 b7 bf 3d 7c 58 3e 1b 11 a5 3e
       0.5798487 -1.433183 0.21141143 0.32239613
000310 4b 9a c2 3d 89 b9 ca 3f 3d 9e 70 3f 1f bd c6 3d
       0.09502085 1.5837871 0.9399145 0.09704041
000320 97 f5 40 3e a2 ca c2 3e 13 9b 36 3c 18 6f 5d be
       0.18843685 0.38045222 0.011145371 -0.2162441
000330 30 38 a8 3f 7f b6 2b bf ba a2 03 3f 38 39 27 3f
       1.3142147 -0.6707534 0.51420176 0.65321684
000340 51 08 8e bf 4b 8e 61 3e 90 d4 6a 3f 89 8a f3 3f
       -1.1096288 0.22026937 0.91730595 1.9026653
000350 42 e7 8a bf f8 a5 5e 3e 18 b7 3b 3f 26 f7 af 3f
       -1.0851824 0.21743 0.73326254 1.3747299
000360 87 1b 7d 3f 77 90 86 bd df a0 2c bf 1e 32 87 3f
       0.9887013 -0.06570523 -0.6743297 1.056217
000370 1e b0 7d 3e 1d 68 8b 3f a4 c4 68 bf 3c a7 1f 3f
       0.24774215 1.0891148 -0.9092505 0.62364554
000380 5a b7 d5 be 23 d8 66 3e 62 a4 6f bc 00 41 17 3f
       -0.4174145 0.22543387 -0.014626594 0.5908356
000390 fc e5 4c 3f 97 4a 20 3f 59 f8 82 3f 1b 28 2d bf
       0.8003843 0.62613815 1.023204 -0.6763932
0003a0 4f a6 17 3e 30 07 98 bd 8c 10 e5 3e 2b 3d b4 3e
       0.14809535 -0.07423246 0.44739187 0.35202917
0003b0 c0 4b ab be 3c 0d f6 3e 52 90 53 bf 38 04 92 bc
       -0.3345623 0.48056972 -0.8264209 -0.017824277
0003c0 ec 62 e7 be 8c f4 81 be 6d 26 bc 3f d0 4d 7c be
       -0.4519266 -0.25381887 1.4699227 -0.24639058
0003d0 ff 01 8b 3f e3 0a 8e bf c1 68 6d c0 fa 44 54 bf
       1.0859984 -1.1097072 -3.7095187 -0.8291775
0003e0 6c 14 11 bf db 4b f4 3e 8a 5a a1 3e 4f 97 b4 bf
       -0.56671786 0.47714123 0.31514388 -1.4108676
0003f0 2c 48 2e 3e 68 63 93 bc 6e 1f 29 be f8 e9 f5 3e
       0.17019719 -0.017991737 -0.16515896 0.48030066

conv2.1.kernel f4 [64, 1, 3, 3]
000000 ed 5f db 3d 93 85 6b 3f 47 e5 f8 be 31 26 01 3f
       0.10711656 0.92000693 -0.48612425 0.504489
000010 1e d6 73 bf 36 99 8d be b4 91 85 3f cf 5e 53 3f
       -0.9524859 -0.27655953 1.043509 0.8256654
000020 a7 5d ef 3d 9e 6c ab 3f a1 5e ee bf cf ff f4 be
       0.11687785 1.3392522 -1.8622628 -0.47851416
000030 6b aa 84 bf fc bd 10 3f 2e bf 1f c0 ef 9c 5f bf
       -1.0364507 0.56539893 -2.4960437 -0.87348837
000040 cd 6e 7b 3e f9 ef 35 c0 57 c1 ec bf 9e 5d 47 3f
       0.24553986 -2.8427718 -1.8496503 0.77877223
000050 97 93 af 3f 83 4b 3e 3f 1f 9d 65 bf 05 f6 4c 3f
       1.3716916 0.7433397 -0.8969287 0.80062896
000060 76 6a 93 bf 74 5f d1 3e 5d c0 72 bf de 24 3e bd
       -1.1516864 0.40893137 -0.94824773 -0.046421878
000070 6d 89 ff 3e b1 61 be bf ee a7 6c bf 73 e9 03 c0
       0.49909535 -1.4873563 -0.9244374 -2.0611236
000080 c4 6a 6a 3c 30 34 29 bf cf 64 13 bf d6 17 a7 bf
       0.0143076815 -0.66095257 -0.57575697 -1.3054149
000090 ac 62 a3 be 13 49 94 be 0d ea 0a bf c5 a3 c1 3e
       -0.31911218 -0.28962 -0.54263383 0.3782026
0000a0 b7 da 49 3f a9 43 7c bf dd 38 aa 3f 02 b1 8e 3e
       0.7884936 -0.9854074 1.3298603 0.2786942
0000b0 dd 41 97 3e 8a db 3b 3f 26 42 23 bf f7 e5 02 3f
       0.29542437 0.73381865 -0.6377281 0.5113215
0000c0 34 a8 e6 bc d0 15 24 bf 48 98 09 c0 2b 64 a3 3f
       -0.028156377 -0.64095783 -2.1499195 1.2764944
0000d0 5d bf d7 3e 79 89 01 3e c6 32 4b bf 0f cf 12 40
       0.42138186 0.12650098 -0.7937435 2.2938879
0000e0 6f 9a 4a bf c4 8f bb 3f b7 82 a6 3e db 6e cd be
       -0.79141897 1.4653249 0.32521603 -0.4012364
0000f0 e3 b1 77 3f aa d9 a4 3e 5a 30 9c be e1 01 ca bf
       0.9675581 0.32197315 -0.3050564 -1.5781823
000100 9e 97 b7 bf 7a a6 16 40 8a 7e 33 bf 1c b1 02 3f
       -1.4343145 2.353911 -0.7011496 0.510515
000110 74 05 8a be 8c 28 23 3f f6 27 b2 3c 76 a6 46 3e
       -0.26957285 0.63733745 0.02174757 0.19399437
000120 36 a1 b6 bf 2b c3 bd 3e 24 c1 87 bf bb a0 54 bf
       -1.4267948 0.37062964 -1.0605817 -0.83057755
000130 ab 9e 7e bf 80 0d c2 bf 23 8d 1d 3f aa 4f c7 3e
       -0.9946086 -1.516037 0.6154348 0.38927966
000140 22 9b f4 be a9 ed be bf 5b 31 5f 3f 80 bf db bd
       -0.47774607 -1.4916278 0.87184685 -0.10729885
000150 21 1f ac 3f 59 23 cb 3f 25 b6 2b 40 8f ee a0 be
       1.3447 1.5870162 2.6829922 -0.31432006
000160 0a bb ef 3f 33 e3 5c 3f 27 9a 4e 3f 30 79 d9 bf
       1.8728955 0.8628418 0.8070397 -1.6990108
000170 30 c8 0d 3f ec dd 44 bf 2a ef 03 3f 9e a5 b9 bc
       0.55383587 -0.76901126 0.5153681 -0.02266198
000180 9b aa 6b bf d3 2e 3a bf fb ae 10 3e e0 73 ba 3f
       -0.920572 -0.727277 0.1412925 1.4566612
000190 6c ca 1a bf 8c 9f b0 3f 89 11 a0 3f a5 a6 54 bf
       -0.6046512 1.379869 1.2505351 -0.8306678
0001a0 77 58 6c 3f c2 03 30 bf b6 4e b3 be c8 4c 28 be
       0.92322487 -0.68755734 -0.3502099 -0.1643554
0001b0 61 83 5d bf eb 80 45 be e2 1c ac 3f 69 0d d9 3f
       -0.86528593 -0.1928746 1.3446314 1.6957217
0001c0 72 a2 76 be 46 07 d9 bd 7f 3e 37 3f 5d 4d 83 bc
       -0.24085405 -0.105970904 0.71579736 -0.0160281
0001d0 a8 d1 79 3f ea ff 92 be 99 a3 8e bc a5 40 74 3f
       0.97585535 -0.28710872 -0.017411994 0.9541114
0001e0 fb ae ca be 3a d5 4a 3c 98 99 45 bf 81 fe 10 c0
       -0.39586625 0.012379939 -0.7718749 -2.2655337
0001f0 cd 27 00 bf f7 78 f1 bf 3f e4 7e bf 17 60 ca be
       -0.5006073 -1.886504 -0.99567026 -0.39526436
000200 98 52 9c 3f 30 5f 77 bd 5b b3 cc 3f 4b 1f f7 bf
       1.2212706 -0.060393512 1.5992235 -1.9306425
000210 a9 af fb be 78 44 11 3e c1 66 98 bf 4e f1 93 bf
       -0.49157456 0.14186275 -1.1906358 -1.1558015
000220 76 50 25 40 1a 09 80 bf ce 69 c3 be f3 a2 7a 3e
       2.583036 -1.0002778 -0.3816666 0.24476223
000230 47 7d 85 be ef 7a 9c 3e ff 63 88 3e 54 6c 8a bd
       -0.26072142 0.3056254 0.2663879 -0.06758943
000240 2a 7a 61 bf 99 cc 24 3d a8 37 df bb 36 54 99 3f
       -0.8807703 0.040234182 -0.0068120547 1.1978824
000250 58 09 b1 3e 3a e3 85 3f ea f9 28 3d ad fb 22 3e
       0.3457744 1.0459969 0.04125396 0.15916319
000260 a0 9a 8c 3f 2f cf d2 3e 80 65 19 bf d1 1b 63 3f
       1.0984688 0.41173694 -0.599205 0.8871432
000270 ec c7 2d bf 84 a4 12 bf 00 82 24 bc 91 0d 6f 3e
       -0.6788318 -0.5728228 -0.01004076 0.23345019
000280 26 28 a1 bf 84 bf 20 bf 49 c8 17 bf be f8 11 bf
       -1.2590377 -0.6279223 -0.59289986 -0.57020175
000290 72 4a c5 be 36 e6 c7 be 70 f0 8b bf b5 c1 c3 3e
       -0.3853336 -0.39042825 -1.0932751 0.38233724
0002a0 4b 2a 53 3f 23 9a 48 3f 8a 71 b6 be 9b 22 05 3f
       0.8248641 0.78360194 -0.35633498 0.5200593
0002b0 ea 5d 7c 3e c6 74 0d 3e 93 29 58 3f e2 7e 2b be
       0.246452 0.13814077 0.8443844 -0.1674762
0002c0 f8 3b 73 3f e8 d0 2c 40 f2 ba 90 be 71 e8 6e be
       0.9501338 2.7002506 -0.28267628 -0.23330857
0002d0 0f c6 20 40 ac 2d 13 3e 35 76 4b bf 4e b0 44 bf
       2.5120885 0.14372891 -0.79477245 -0.7683152
0002e0 a6 62 8d be 38 36 51 3f f5 7a 8c 3f 32 97 13 3f
       -0.27614325 0.81723356 1.0975024 0.5765258
0002f0 c1 7f 08 bf 77 9a 2b bf d1 3c 77 bf f4 45 57 bf
       -0.53319937 -0.6703257 -0.96577173 -0.84091115
000300 47 00 66 3f 5a 24 c0 3f 7b fc 34 3f ae cb b1 bd
       0.89844173 1.5011094 0.70697755 -0.08681427
000310 c9 69 81 bf dc 56 55 3e 51 74 e3 3e d7 d3 52 bf
       -1.0110408 0.20833915 0.4442468 -0.8235449
000320 5c dc 23 bf f1 36 af 3e 3c 45 36 bf 49 86 66 3f
       -0.64008117 0.34221604 -0.71199393 0.9004865
000330 20 80 bc 3f 94 69 b8 bd 28 c6 70 3d 54 46 67 bf
       1.4726601 -0.090045124 0.058782727 -0.9034169
000340 85 98 59 3e 24 11 2a bf e4 c3 47 3f 53 e6 21 40
       0.21249588 -0.66432405 0.7803328 2.5296829
000350 6e c0 85 be 6f 34 a1 3e f2 7a f7 be 9d 40 31 be
       -0.26123375 0.31485316 -0.48335987 -0.17309804
000360 cf 98 87 be 3d 3b ea bf 51 8a 08 40 f5 2d 1d 3f
       -0.2648377 -1.8299328 2.1334422 0.6139825
000370 03 31 62 bf 24 df b5 be 53 8c a1 3f 3d 32 09 40
       -0.88356036 -0.35521805 1.2620949 2.1436913
000380 13 e6 bb bf df b9 6e bd e4 18 a6 3f 5a 86 2a bf
       -1.4679588 -0.05828273 1.2976346 -0.66611254
000390 9c 46 b1 3f f8 07 28 bf 1c f6 2d bf 2f be ab 3e
       1.3849673 -0.6563716 -0.6795366 0.33543536
0003a0 c4 c8 4d 3e 3b bb 06 3e 54 e1 43 3e 57 70 e5 bf
       0.20096117 0.1315736 0.19128925 -1.7924908
0003b0 b7 ab 23 3f 45 bb 01 40 ef 52 72 3d 90 d9 1a 40
       0.6393389 2.027055 0.059161123 2.419529
0003c0 99 bc a8 3f a1 d7 8c bf 93 5d 43 3f 8d bd bf bd
       1.3182555 -1.1003305 0.7631466 -0.09362326
0003d0 4e be bb bf f5 66 a8 be cf 03 86 3e 88 fb 0d bd
       -1.4667451 -0.3289105 0.2617478 -0.034663707
0003e0 33 2c d0 3d d8 d3 ef bd d5 02 a4 3e 95 cb 02 3f
       0.1016468 -0.11710328 0.3203341 0.5109189
0003f0 8d a7 cf 3f 8c 75 7c 3e 5d 3f 1c be 9c 94 3c 40
       1.6223007 0.24654216 -0.15258546 2.9465704

conv2.2.kernel f4 [64, 1, 3, 3]
000000 8b c2 db 3e ee a9 b0 bf fe 4f 7d 3e 72 2f 85 bf
       0.42921862 -1.3801858 0.24737546 -1.0405104
000010 44 bd 05 3f 77 6d a8 3f 97 f4 55 3f dc 21 43 bf
       0.5224192 1.3158406 0.8357634 -0.7622354
000020 db 09 4a bf 8b 51 46 be 2d 95 b1 bd 89 c2 2c 3f
       -0.7892129 -0.19367044 -0.08671031 0.6748434
000030 ce 94 3e bf 37 37 26 bf ca 4c 27 bf 9a 3c 0f bf
       -0.7444581 -0.64928 -0.65351546 -0.55951846
000040 65 18 01 c0 97 c6 6e bd 4a e2 07 3f ca ea 78 bf
       -2.017114 -0.05829486 0.53079665 -0.9723326
000050 6d 05 16 3f 05 4e 2d bf c5 bd 89 bf ff f2 f8 3e
       0.5860203 -0.67697173 -1.0761038 0.4862289
000060 59 c6 d0 bc bc c7 ef 3f 2e 0b be 3f 2a 34 af be
       -0.025485205 1.8732829 1.4847162 -0.34219486
000070 2d ca 1f be f6 51 b7 3f 30 da 76 3e 87 87 b9 3d
       -0.15604468 1.4321887 0.2410667 0.09059053
000080 94 3c 73 3f 28 7d b1 3f 20 aa c7 3e 8c a5 e7 3f
       0.9501431 1.386632 0.38996983 1.8097396
000090 3e 1b a2 3b 34 26 ff 3f ad fa 98 3f 9c ab c4 be
       0.004947095 1.9933534 1.19515 -0.38412178
0000a0 9c df bd 3f 45 e1 ec 3e 80 01 c6 bd c3 14 c4 bd
       1.4833865 0.46265617 -0.09668255 -0.095742725
0000b0 fe cd bf 3e 0e ff 02 c0 4c d8 95 3e 74 9f d6 be
       0.37461847 -2.0468173 0.29266584 -0.41918528
0000c0 db 47 19 bf b2 13 9f be 8a 2f 5f 3e f6 64 29 bf
       -0.5987527 -0.31069714 0.21795478 -0.6616968
0000d0 ed 61 ca 3e a9 01 12 3f 4e 61 45 3f ed 03 1c be
       0.39527836 0.57033783 0.771016 -0.15235873
0000e0 6d 48 b4 3e 2b 42 1e 3e 73 5f fd be 56 be 43 3f
       0.35211506 0.15454929 -0.49486884 0.76462305
0000f0 00 2a 76 3f 90 f5 26 40 7b 1d 9d bf 0b 47 a1 3f
       0.96157837 2.608738 -1.2274622 1.2599806
000100 d7 96 3c 3d 84 55 42 3e b3 b1 b3 bf 9e fe 7f 3f
       0.04604229 0.18977934 -1.4038604 0.9999789
000110 13 c7 23 3d 71 9f 0c bf d7 ac 01 3f d5 55 71 3f
       0.039984774 -0.5493079 0.5065436 0.94271594
000120 78 0a 20 bf b1 5c 17 3f 23 1b 01 c0 67 63 b2 3e
       -0.62515974 0.5912581 -2.0172813 0.34841463
000130 85 32 01 bf 68 90 51 3c 0d 14 3d bf 4c 08 cb 3e
       -0.5046771 0.012790777 -0.7385872 0.39654768
000140 6b 35 cc 3e 1e b1 c3 bf 60 3c 8a be c0 ae f4 bf
       0.39884505 -1.5288427 -0.26999187 -1.911583
000150 16 91 ed be 85 e4 0e bf 84 22 a2 3f 60 8c 12 3f
       -0.46399754 -0.55817443 1.2666783 0.57245445
000160 eb 7c ac 3d e8 96 0a 3f 00 45 e1 bf 97 cb 2b 3f
       0.08422264 0.54136515 -1.7599182 0.6710753
000170 8f 13 03 40 f5 2d 00 3f af 92 1a 3f eb 54 32 3c
       2.0480688 0.50070125 0.6038007 0.010884504
000180 1c b2 ff 3e 31 2b c8 be fb d3 c2 3f 22 eb 7d bf
       0.49940574 -0.39095452 1.5220941 -0.9918691
000190 54 3b ca 3d 22 8c cc ba c6 c3 3d 3f a8 5f 54 be
       0.09874597 -0.0015605728 0.7412685 -0.20739615
0001a0 f5 5a c7 be b3 29 4f be 6e d1 87 be 72 25 ed bd
       -0.38936582 -0.2023075 -0.2652697 -0.11579408
0001b0 33 4a e1 bf ef eb 26 3d 76 64 98 be e3 5b de 3f
       -1.7600769 0.040752348 -0.29764146 1.7371792
0001c0 10 a5 88 3e 0e 27 9d bf c8 08 db 3e 56 80 5f 3f
       0.26688433 -1.2277544 0.42780137 0.873052
0001d0 1e 54 25 3f 5f 2a 9f be 73 32 a5 be d5 b0 92 bf
       0.6458148 -0.31087014 -0.32265052 -1.1460215
0001e0 e9 50 fe 3f dc 26 2b 40 79 c7 a8 bf 9c 2a c6 3f
       1.9868442 2.6742468 -1.3185874 1.5481753
0001f0 9f 9d cd 3f 63 7a 54 3f 71 69 6a bf 56 32 1b 3f
       1.6063727 0.8299925 -0.9156714 0.6062368
000200 b5 ef aa 3f 9f 5b da bc df 0d 5e 3f 97 cb 87 bf
       1.3354403 -0.026655016 0.86739916 -1.0609006
000210 0d 80 ae bf e5 e1 01 3e c8 34 23 bf 4f 94 0d 3f
       -1.3632828 0.12683828 -0.6375241 0.55304426
000220 b8 69 f6 bf ae 6a 98 3f 19 6a 96 3d 27 69 7a bf
       -1.9251013 1.1907556 0.07344455 -0.978167
000230 65 57 86 3e ae 24 30 bb 42 90 21 bf 43 a0 3d bd
       0.26238552 -0.0026877332 -0.63110745 -0.046295416
000240 16 7e 2b ba 0c 93 63 be e9 7a 91 bf 86 0d 2e bf
       -0.00065419206 -0.22224063 -1.1365634 -0.67989385
000250 54 2e aa 3e d3 b9 47 3f 78 ac 97 3f eb ae 78 bf
       0.3323847 0.7801792 1.1849508 -0.97141904
000260 24 87 ca bf 37 33 3a 3e d8 3e 7e 3f 62 f5 7f bf
       -1.5822492 0.181836 0.9931464 -0.999838
000270 a2 58 25 3f f4 95 a7 be 8e db 19 3e 16 45 de 3d
       0.6458837 -0.32731593 0.1502516 0.10853021
000280 a6 1d 03 bf 5d 29 a1 bf a1 9a df 3f c5 c0 39 3d
       -0.51217115 -1.2590748 1.7469064 0.045349855
000290 bc bb 72 bf c8 e4 aa 3d 0e 2f 71 3f 37 fb 8d 3f
       -0.9481771 0.08344418 0.94212425 1.109229
0002a0 02 8f e6 be ee 25 0d 3f 43 ff bd 3e 91 6c 1a 3f
       -0.4503098 0.55136 0.37108812 0.6032191
0002b0 1c e7 12 3f 44 5e 25 40 25 e8 dd 3e 31 7c cb bf
       0.57383895 2.5838785 0.43341175 -1.5897275
0002c0 d4 c1 ea be 48 af 83 bf 3d aa e3 be 93 24 4c 3e
       -0.45851004 -1.0287867 -0.4446582 0.19935827
0002d0 7e 61 b4 3f 89 06 c6 3f a5 b1 87 bf 3b 35 8a bf
       1.4092252 1.5470744 -1.0601088 -1.0797495
0002e0 5c 08 50 3d e4 0a 09 3f aa bb a3 3e 31 db ff bf
       0.050789222 0.5353224 0.31979114 -1.9988767
0002f0 ba b6 c1 3e 94 8a e4 be e3 67 a0 3f 0d 9e 19 bf
       0.37834722 -0.44636977 1.2531704 -0.6000679
000300 2a 1d 41 3f b0 65 a7 3f d7 55 a3 3e 58 46 3a bf
       0.75435126 1.3077908 0.31901428 -0.72763586
000310 53 5f 9f 3f 5a 2e 8b 3f f9 9c 83 3d db 6f 61 bf
       1.2450966 1.087352 0.064264245 -0.880613
000320 08 53 d8 bd 3a 80 4f 3f b2 3b 7b 3f 20 0e ef 3f
       -0.10562712 0.81055033 0.9813796 1.8676186
000330 c2 93 03 3d 30 80 82 bf 8e b7 85 3f d6 43 2c be
       0.032123335 -1.019537 1.0446641 -0.16822752
000340 a9 c3 4e 3f fc 87 9e 3e 01 35 9e 3f a6 94 5b bf
       0.80767304 0.30963123 1.2359926 -0.85773695
000350 59 34 26 bf 31 c6 cd bc 47 47 fe bc 3d 4a 2a 3d
       -0.64923626 -0.02511892 -0.031039847 0.041574705
000360 c2 07 84 3f 73 61 7c bf 0f cc 9a bb 4f 6d 9c 3f
       1.0314867 -0.98586196 -0.0047240327 1.2220858
000370 93 fa 35 bf 29 44 9e bf 58 84 41 3f cd cc 03 bf
       -0.7108547 -1.2364551 0.75592566 -0.51484376
000380 15 6c 3a 3f 3e 2c be be d2 4f 07 be 4a 21 a5 be
       0.7282117 -0.3714313 -0.13214043 -0.3225196
000390 9c 18 e1 3e 35 f0 39 3f 4d 4b 13 3d de aa d0 be
       0.43964088 0.7263215 0.035960484 -0.4075536
0003a0 2c 1d a1 3f 4e b9 1d 3f c1 bf 3d bf 54 3a a3 be
       1.2587028 0.6161088 -0.7412072 -0.31880438
0003b0 53 26 6a bf 32 c8 ba bf 4d f1 34 3f 5f 50 17 3f
       -0.9146473 -1.4592345 0.70680696 0.5910701
0003c0 22 09 8b bf 69 f8 f6 3e 30 64 60 3f 73 0f ab 3f
       -1.0862162 0.48236397 0.87652874 1.336409
0003d0 0c 4e 6d 3f fd 2c 90 bf 5c 2e db bf 59 62 22 be
       0.92697215 -1.1263729 -1.7123523 -0.15857829
0003e0 a4 36 11 bf cb 6a 80 bd be ed b6 bc 9a 53 c5 3f
       -0.56724 -0.06270369 -0.022330161 1.5416138
0003f0 2c 2d 71 bf d0 dd 29 3b 7c 6e c9 3f c0 73 72 3f
       -0.9420955 0.0025919564 1.5736842 0.9470787

conv2.3.kernel f4 [64, 1, 3, 3]
000000 a5 58 7c be ea c7 6a be 34 7e 0c 3f 31 7e 66 bf
       -0.2464319 -0.22927824 0.5488007 -0.900363
000010 7d d5 b6 bf 1c ec cb be 54 c0 bc be cd dc 89 3f
       -1.4283901 -0.39828575 -0.36865485 1.0770508
000020 ba 03 09 40 38 79 29 be 53 ce e7 bd aa 60 bf 3f
       2.1408525 -0.16550148 -0.1131865 1.4951375
000030 91 a7 ab bf 15 d3 3f 3f 9c a4 cd 3f 0f 4e d7 bf
       -1.3410512 0.7493146 1.606586 -1.6820697
000040 ba 7f c8 3d e0 bd 05 bf e7 aa cf be e9 0b 49 be
       0.09789987 -0.5224285 -0.40560076 -0.1963345
000050 f7 07 d3 3f eb 71 ef bf 0b 74 c3 bf 19 72 ec 3f
       1.6486806 -1.870664 -1.5269789 1.847232
000060 c8 01 ae 3f 11 b9 b4 3e fb 29 b7 3e b0 51 a1 bf
       1.3594294 0.35297444 0.35774216 -1.2603054
000070 bd 05 57 bf 69 f2 79 bf 4d ab bb be 48 85 0d 40
       -0.8399313 -0.97635514 -0.3665413 2.2112598
000080 6c 44 56 3e 78 c2 b9 bf c6 46 8d bf 1b 32 af be
       0.20924538 -1.4512472 -1.1037223 -0.34217915
000090 76 ff 69 3f b1 7c d6 bf e5 7f f9 be 22 b1 67 3f
       0.9140543 -1.6756803 -0.48730388 0.9050466
0000a0 4b 88 6a 3f 1c fa 0a 3f 68 48 a3 bf c6 e4 3f 3f
       0.91614217 0.54287887 -1.2756472 0.74958456
0000b0 da 97 5d bf b0 6f 1a 3f 46 f6 ca 3f 70 a9 9c bf
       -0.8655983 0.6032667 1.5856407 -1.2239208
0000c0 aa da 48 3f 57 04 45 3e 7f ca 63 be 64 62 50 3f
       0.78458655 0.19239937 -0.22245215 0.8140013
0000d0 10 97 47 be 61 8a f8 bf d6 62 99 3f 31 3c e4 3f
       -0.1949122 -1.941723 1.1983287 1.7830869
0000e0 5c b7 5d 3d 08 6b 89 3f ff b1 9b 3e d1 15 80 bf
       0.054129943 1.0735788 0.30409238 -1.0006658
0000f0 ad a2 22 3f 8f c1 d8 bf ad 04 a7 3f ef fd 88 3f
       0.63529474 -1.6934069 1.3048302 1.0702494
000100 62 5f de 3d 63 eb 8b be bb 79 8e 3e eb c4 b8 3e
       0.108580366 -0.27328023 0.27827248 0.36087736
000110 83 ad c0 be 05 fb 21 bf 01 dd af bf f8 7b b1 3f
       -0.3763238 -0.6327365 -1.373932 1.3865957
000120 bf a3 9b 3e 48 e9 bc 3f 46 40 b0 3f 6f b9 c6 bf
       0.30398366 1.4758692 1.3769615 -1.552534
000130 4f f2 01 bf 8b 3a 9d 3f df 9f ea 3f dd d9 c3 3f
       -0.5076036 1.2283491 1.8330039 1.5300862
000140 31 0e af bf 67 a8 21 3f af 4c 62 bf 20 21 19 c0
       -1.3676206 0.63147587 -0.8839826 -2.3926468
000150 59 ba d5 3e 19 6d 06 3f 47 d1 78 3f 2d fa d1 3e
       0.41743734 0.5251022 0.9719433 0.4101118
000160 eb 9b 52 3e 51 f1 e2 3c 0f ef 0e 3f 87 da 80 3e
       0.2056729 0.02770296 0.55833524 0.25166723
000170 0b fc 0c 3e 3c d1 93 bb a1 18 96 3f fa cf ce 3d
       0.13768022 -0.0045110267 1.1726266 0.10098262
000180 37 b7 c5 3f 1b ad 8c 3f 4d a3 6f bf 75 17 a5 3e
       1.5446538 1.0990328 -0.9360855 0.3224446
000190 e9 d7 57 3f c0 95 f7 be da ef fb 3e b9 ce 6a bf
       0.8431383 -0.48356438 0.4920643 -0.91721684
0001a0 75 61 a2 bf a8 b3 2f 40 d5 1b 28 3f e7 31 94 3f
       -1.2685992 2.7453403 0.6566747 1.1577729
0001b0 55 65 d3 bf 45 9b a3 be ec 39 e3 3e 8e 86 7d 3e
       -1.6515299 -0.319544 0.44380128 0.2475836
0001c0 99 dc 99 3c 1b af 64 bf da 1c 31 3f 4a 78 71 bf
       0.018781947 -0.8932969 0.6918465 -0.9432417
0001d0 33 f1 bb bf 91 97 58 be 29 3f f9 3e 96 91 a7 bf
       -1.4682983 -0.21151568 0.48681 -1.3091304
0001e0 32 5e 24 3f 2d 48 a5 bf e1 94 da be 64 ba e9 3e
       0.6420623 -1.2912651 -0.4269171 0.45650017
0001f0 ba 8f 8f 3e eb be 0b 40 12 e9 17 bf c6 5a 9c 3d
       0.28039342 2.1835277 -0.5934001 0.07634501
000200 38 6b a2 3f 3e 5f c8 be 77 84 45 bf 07 2a cc be
       1.268897 -0.39135164 -0.7715525 -0.39875814
000210 0e 30 da 3f a8 1e fa bc 4e 8a a2 3f 20 3a 56 3f
       1.7045915 -0.030532196 1.2698457 0.8368244
000220 3c 0b dc 3f 15 7d 7c 3e c9 ff 3d bf b4 55 44 3f
       1.7190928 0.2465709 -0.7421842 0.7669327
000230 12 6c 8b be fe 63 8c bf 89 9e 3d bf f7 e1 03 be
       -0.2723089 -1.0968015 -0.7407003 -0.12879167
000240 cd 7d 9b be 00 bc cf bf 68 56 56 bf 6b 0f af 3f
       -0.30369416 -1.6229248 -0.83725595 1.367658
000250 0c 92 49 bf 27 78 bb 3d c6 67 18 3f 88 99 f8 3e
       -0.78738475 0.091537766 0.59533346 0.48554635
000260 30 38 26 3e c4 d9 73 3f 23 41 81 3f 7b 3d 9e 3e
       0.16232371 0.9525416 1.0098003 0.3090628
000270 c1 b1 ae 3e 02 8c d1 3f 6c 67 80 bf 88 84 f2 3d
       0.3411999 1.6370852 -1.0031562 0.118416846
000280 5f 44 9a 3f fd 53 d3 bf 4c 37 87 be a4 2e 88 bf
       1.2052115 -1.6510006 -0.26409376 -1.0639234
000290 6b d2 2d bf 89 74 9e 3f 3b c2 86 3e 86 eb f5 be
       -0.678992 1.2379314 0.2632006 -0.48031253
0002a0 5a 6d 6e be a4 52 89 be 4b ad 53 be 65 44 ca be
       -0.23283902 -0.26820862 -0.20671575 -0.39505306
0002b0 ca a2 f8 bf fd ed 69 3f 1e ca 3f bf 37 65 6c bf
       -1.9424679 0.91378766 -0.7491778 -0.9234194
0002c0 ce 26 32 3e 7f 7a 59 bf bc a9 9b 3f e5 15 4b bc
       0.17397615 -0.8495254 1.2161174 -0.012395357
0002d0 b7 20 dc bc 5b d7 18 bf 4e ee a4 bf cc 83 64 bf
       -0.026871068 -0.59703606 -1.2885225 -0.89263606
0002e0 a1 14 c6 3f b9 af 3c bf a6 fa 9a bf 3f ad 57 bf
       1.5475045 -0.7370563 -1.2107742 -0.8424873
0002f0 32 38 13 bf f6 84 a1 3f 1c 5e 51 bf e7 ca 66 3f
       -0.5750762 1.2618701 -0.81784225 0.90153354
000300 95 f3 0b 3d 78 1a 98 3f 7c c6 bb 3e b7 61 66 bf
       0.034167845 1.1883078 0.3667487 -0.8999285
000310 f3 2f 95 3d fd e4 08 bf 1a 50 3f 3f 44 22 e1 3f
       0.07284536 -0.5347441 0.747316 1.7588582
000320 c9 36 57 bf 74 36 99 3f a4 8d 2e c0 da 71 b6 3f
       -0.8406797 1.1969743 -2.727395 1.4253495
000330 e3 77 d6 bf d3 16 31 3f 68 3e 78 bd 90 63 76 3f
       -1.6755337 0.6917545 -0.06060639 0.9624567
000340 ed f1 5d 3f 5a c8 4e 3f 67 ff e8 3e 49 b4 11 3d
       0.86697274 0.8077446 0.45507357 0.035572324
000350 49 10 b3 bf f0 a1 92 bf 09 73 81 3f c2 f2 94 bf
       -1.3989345 -1.1455669 1.0113231 -1.1636584
000360 7b e2 a2 bd 94 b3 02 40 b9 0c a3 3e 5f a4 91 3e
       -0.07953354 2.0422106 0.31845644 0.28445718
000370 89 85 b5 3e 2e 32 0d c0 d8 10 5c 3e 03 1f a1 3e
       0.35453442 -2.2061877 0.214908 0.31468973
000380 42 4f 77 bf 18 b6 ae 3b ae 80 89 3f 4a 6c 7c 3f
       -0.9660531 0.005331766 1.0742395 0.98602736
000390 63 f5 8b be c1 5f 8c 3f ec 70 98 be 48 f8 6e be
       -0.27335653 1.0966722 -0.29773653 -0.233369
0003a0 dc 5d 6d bf ce a7 9f be fa f1 9a 3f 1f 3b 71 3f
       -0.92721343 -0.31182712 1.2105095 0.94230837
0003b0 14 39 57 bf 29 3c 5b 3f ae 3c 85 3f 39 be 87 3e
       -0.8407147 0.8563867 1.0409143 0.26512316
0003c0 cf e3 51 bf fb 7a 8b bf a1 80 ca bf f2 2e 97 be
       -0.81988233 -1.0896906 -1.5820504 -0.29528004
0003d0 ad cd 5d bf 0a c2 b8 be 8f cf 91 be bf 42 16 3f
       -0.8664196 -0.3608554 -0.28478667 0.58695596
0003e0 be 8b 75 bf 69 b2 be 3d ec d1 2a 3e 95 2c 10 bf
       -0.95916355 0.09311373 0.16681641 -0.56318027
0003f0 98 30 15 be 25 e1 32 be e4 24 9d 3e 50 76 8c bf
       -0.14569318 -0.17468698 0.30692208 -1.0973606

conv2.4.kernel f4 [64, 1, 3, 3]
000000 9f f5 97 be 0d 79 89 be c6 e2 b4 3f 18 33 cb 3f
       -0.29679582 -0.26850167 1.4131706 1.5874968
000010 2f c5 82 bd de c2 5f 3e 01 89 ae bf 4b d3 8f bf
       -0.06385266 0.2185168 -1.363556 -1.1236356
000020 3b 5f bc 3e 7a 3f 87 bf ba af 56 3e ab c4 97 3d
       0.36791405 -1.0566247 0.20965472 0.07410558
000030 c7 84 89 bd d8 82 96 bf 38 5d 47 be 1f 15 29 3f
       -0.067147784 -1.175868 -0.19469154 0.66047853
000040 40 35 f4 3e 9d 58 0e be f2 5a 22 40 21 a8 89 3d
       0.47696877 -0.13900991 2.5368009 0.06721521
000050 c9 2e a1 bd 46 63 d6 be ec a9 99 bd 9c d5 0c 3f
       -0.07870252 -0.41872615 -0.07503113 0.5501344
000060 92 b3 83 be e0 66 af bf 4d 00 8a be ba 23 b3 3e
       -0.2572294 -1.370327 -0.26953354 0.34988195
000070 ce ee a8 bf fb 46 10 3e f1 5d 39 3f 85 05 8f 3e
       -1.3197877 0.14089577 0.7240897 0.279339
000080 9a 74 9f 3f 86 7e e6 3f a2 c5 08 bf 49 b9 96 bf
       1.2457459 1.8007362 -0.53426564 -1.1775295
000090 ee ed 35 bf 6c 46 b4 3f 96 66 d1 3f 4a 4b ec 3e
       -0.71066177 1.4083991 1.6359432 0.4615119
0000a0 29 20 cf 3f 7d a4 9e 3e c7 9c 2d 3f 5a 9d c3 bf
       1.618169 0.3098487 0.6781735 -1.5282395
0000b0 57 0a af bf 98 d4 70 3f fc 69 ef be d3 79 02 40
       -1.367503 0.9407439 -0.46760547 2.0386856
0000c0 01 37 53 bf 96 c8 35 3f 23 23 cc be cb d8 9a 3e
       -0.82505804 0.71009195 -0.39870557 0.30243525
0000d0 e8 21 91 3f 77 f6 f9 3e 76 a3 39 3f 3e f0 ee 3f
       1.1338472 0.4882085 0.72515047 1.8667066
0000e0 27 4c e5 3e fb d1 97 be 95 a7 05 3c 66 11 cc be
       0.44784662 -0.2965239 0.00815763 -0.39857024
0000f0 9b 5c ce bf cc c6 3f 3d d2 cf 81 bf 47 79 a8 3f
       -1.6122011 0.046820447 -1.0141547 1.3162011
000100 25 73 95 bf b0 c6 28 be 8a af 2e 3f 9d bb 75 3e
       -1.1675764 -0.16482043 0.682366 0.2399735
000110 9c ac 19 3f 20 51 dd 3e 90 f8 fb be 1d 63 82 3f
       0.60029006 0.43225956 -0.49213076 1.0186497
000120 07 d0 9d 3f 31 de df 3e d2 3e ba 3f f5 4a 15 c0
       1.232911 0.43724206 1.4550421 -2.3327
000130 25 76 f4 3d f2 6f cb be 63 37 1c bf 49 e3 df be
       0.11936597 -0.39733845 -0.61022013 -0.43728092
000140 ff 14 0d 3f 31 65 03 bf 66 f4 bf 3f 29 3c cf bf
       0.5511016 -0.5132628 1.499646 -1.6190234
000150 89 7f 5b 3d 0e 2b d4 bf e7 a6 50 3e 19 74 f8 3e
       0.053588424 -1.6575639 0.20376168 0.48526075
000160 31 e3 ad 3e 15 ec 6b bf 5c 9a 5f 3e 35 92 7d 3f
       0.33962396 -0.9215711 0.21836227 0.9905122
000170 d7 5d 82 3f 83 fe 76 bf 76 f9 f5 3f ea 42 94 be
       1.0184888 -0.96482104 1.9216754 -0.289573
000180 e8 9d 49 3e ea e1 fa be c5 d8 50 be 52 a0 55 3e
       0.19689143 -0.49000484 -0.20395191 0.20861939
000190 91 a7 8e bf 72 42 48 3f 77 17 af 3e 03 70 d3 3e
       -1.1144887 0.7822639 0.3419759 0.41296396
0001a0 37 35 c5 bf 5a 5c 1c 3f 72 a2 81 be e4 cb 18 c0
       -1.5406865 0.6107842 -0.25319248 -2.3874445
0001b0 0d 74 ab 3e 94 21 50 bf 8d 8d b0 3f 97 d2 25 be
       0.33486977 -0.81301236 1.3793198 -0.16193615
0001c0 d0 5e 30 3f 63 2a 93 bf 19 46 01 40 a3 dc 47 3f
       0.6889467 -1.149731 2.0199034 0.7807104
0001d0 b4 d9 62 be 33 be 38 bf 76 e7 15 bf 4b 64 11 3f
       -0.2215336 -0.7216522 -0.58556306 0.5679366
0001e0 40 8a 86 3d 9d 5d b8 3e 26 c4 f9 bf cc a9 94 3e
       0.06569338 0.3600892 -1.9512985 0.29035795
0001f0 d2 10 11 3f ed 5f ae 3e 24 a6 88 3f ab f1 90 3f
       0.5666629 0.3405756 1.0675702 1.1323751
000200 b9 4f 39 bf de a4 23 3f 5b bc 0f 3d d3 74 13 3f
       -0.7238727 0.6392344 0.03509174 0.57600135
000210 64 41 5c bf 44 22 20 bf 17 de 6d 3f e5 31 32 bf
       -0.8603728 -0.62552285 0.9291701 -0.69607383
000220 9a ec a9 bf 90 20 7a 3e 95 12 27 bd c1 57 0c 40
       -1.327533 0.24426484 -0.040789206 2.192856
000230 f2 43 42 bf 1c d9 08 3f e7 fe eb 3a 5a 61 de be
       -0.75884926 0.5345628 0.0018005044 -0.43433648
000240 c2 ff 2d bf 9a bd 3e bf 70 3b f0 3e 72 7c a0 3d
       -0.6796838 -0.7450806 0.46920347 0.07836236
000250 75 cc f9 bf 92 05 d2 be d3 a9 71 bf 0d 83 4a 3e
       -1.951552 -0.41019875 -0.94399756 0.19776554
000260 53 45 73 3e a0 28 83 3f 27 ed 27 3f 29 a3 7a bf
       0.23756914 1.0246773 0.6559624 -0.9790521
000270 33 41 96 bf 36 aa 91 bf de db b3 3f 9c f2 9a 3f
       -1.1738647 -1.1380069 1.4051473 1.2105289
000280 29 29 91 3b df a5 02 3f d8 90 a3 3f 5c 7f 0c bd
       0.0044299555 0.5103435 1.2778578 -0.034301147
000290 e9 50 4c bf 8f 36 93 bf 96 32 13 be 28 c6 5b 3e
       -0.7981096 -1.1501025 -0.14374766 0.2146231
0002a0 a3 40 9a 3f 7b f1 d7 be fd 67 72 3f a3 43 9f be
       1.2050976 -0.42176422 0.94689924 -0.3110629
0002b0 d2 f6 bb 3f ce cc 8a be a3 6a 34 bf d5 f0 cc bf
       1.4684699 -0.2710938 -0.70475215 -1.6010996
0002c0 30 f8 4c be bd 52 21 bf 6e 3b 3e bf cf 21 78 3e
       -0.20016551 -0.63016874 -0.7430943 0.24231647
0002d0 72 a3 0c 40 22 bf 1a 3d 2e df 02 bf 5e d1 7e 3f
       2.197476 0.037779935 -0.51121795 0.9953822
0002e0 7c 94 09 bd 86 a0 bc 3e a4 63 56 bf 56 18 3f 3e
       -0.03358887 0.3684122 -0.8374579 0.18661627
0002f0 17 6e dd bf 20 30 51 3e d6 cd 82 bf 35 2f 27 3f
       -1.7299222 0.20428514 -1.0219066 0.6530641
000300 29 4c 93 3e 7e 48 d1 3d 63 7e ee 3f 6c c6 7e 3f
       0.28769043 0.10218905 1.863232 0.9952152
000310 8f e5 e3 3d 79 4e df 3f 4a 7c f0 3e 70 f9 3b bf
       0.11127769 1.7445823 0.46969825 -0.73427486
000320 ee 66 e8 3a 92 5c f7 bd 00 fc a2 3e b9 94 3c 3d
       0.0017730871 -0.12078203 0.31832886 0.04604027
000330 4b 4c 88 3e 21 8a d1 be 66 f3 0f bf a9 df c7 3e
       0.26620707 -0.40925696 -0.5623077 0.39037827
000340 38 6e b1 3e 65 a4 cc bd d6 be 38 bf a4 c7 32 3f
       0.34654403 -0.09992293 -0.7216619 0.6983588
000350 0f e7 ff be 54 95 52 be 8b 77 81 be 9e 8b 7d 3f
       -0.4998097 -0.20564777 -0.25286517 0.99041164
000360 27 a5 79 be 08 ad a3 bf a8 dd 0b 3f 19 52 21 c0
       -0.24379407 -1.278718 0.54635096 -2.5206358
000370 1f 71 8a 3f 48 5f 05 bf 5e 59 43 bf 39 c3 17 3c
       1.0815772 -0.5209851 -0.7630824 0.009262853
000380 87 b3 4a 3f 87 38 89 bf 69 8f 85 bf b6 02 c0 bf
       0.79180187 -1.0720376 -1.043439 -1.5000827
000390 e4 87 f5 bd 1e 85 d5 bb 1a 45 16 bf 0e 38 83 bf
       -0.1198881 -0.006516113 -0.5869919 -1.0251482
0003a0 68 1a 9a 3f 31 7a 05 3e 8f e4 eb 3e a1 11 a3 3f
       1.2039309 0.13034894 0.46072814 1.2739755
0003b0 b7 54 4c 3f 17 97 b1 3e 76 dc 27 be de 2e 82 bd
       0.79816765 0.34685585 -0.16392693 -0.063565955
0003c0 ff 79 8b bf 11 5e ee 3f 78 64 b2 bf 88 31 ae be
       -1.0896605 1.8622457 -1.3936911 -0.34022164
0003d0 56 05 00 c0 cb 7a 6b bf 60 e4 5d 3c d6 c8 12 3f
       -2.0003257 -0.9198424 0.013543218 0.573377
0003e0 4e 45 0a 3f d4 db 79 bf 17 b3 30 bf d6 3f 2f be
       0.54012 -0.97601056 -0.6902327 -0.17114195
0003f0 e9 a1 94 3f 7d c4 56 bd ac 25 bb 3f 26 c8 cd be
       1.1611911 -0.05243348 1.4620872 -0.40191764

conv2.5.kernel f4 [64, 1, 3, 3]
000000 39 a8 de 3f f7 a0 ec 3f 04 59 46 be d9 5b f8 3e
       1.7395087 1.8486623 -0.19369894 0.48507574
000010 2b d3 8a 3f cb 7a 23 be 9a 14 66 3f a0 db 24 3d
       1.0845693 -0.1596481 0.89875185 0.040248513
000020 4a e4 d4 3e 6f 69 7a 3f 3f 08 f9 bf d8 e8 86 3f
       0.4158042 0.9781713 -1.9455642 1.0539808
000030 bb f1 c7 3f 87 50 a0 bf 0d e9 5f bf e2 be a8 bf
       1.5620645 -1.2524575 -0.8746498 -1.3183253
000040 8b 8f f2 bf 15 8e 17 3f 3a bd 0f bf 4d 59 59 be
       -1.8950056 0.59201175 -0.5614811 -0.21225472
000050 0b 38 01 3e 6a 86 8a bf 57 5a 08 c0 8d 3e 91 bd
       0.12619035 -1.082227 -2.130514 -0.07092009
000060 26 9a dc bf 54 a0 cb bf ce 23 cf bf 2a 67 34 3f
       -1.7234542 -1.5908303 -1.6182802 0.70469916
000070 33 92 4f bf 1e 41 f2 ba 28 13 ec 3e 0d f5 24 3e
       -0.8108246 -0.0018482541 0.46108365 0.16109104
000080 41 e1 30 3e 9c 83 20 c0 33 e2 11 bf ec f6 82 3e
       0.17273428 -2.5080328 -0.5698578 0.2557901
000090 46 ca d8 3f 7f ee b6 3e 40 28 b0 bf a8 43 c9 bf
       1.6936729 0.35728833 -1.3762283 -1.5723772
0000a0 7e dc 01 3b 2c 33 b6 bf dc b4 d9 3f c1 4e 34 bf
       0.0019815261 -1.4234366 1.7008319 -0.7043267
0000b0 6d 6c 27 bf e5 ab 3a be 4c 1f 80 bf 9e df 30 3f
       -0.6539982 -0.18229635 -1.0009551 0.6909121
0000c0 65 ba 8e bf 02 76 a2 3f cc 14 09 bf 9f ce 6d 3f
       -1.1150633 1.2692263 -0.5354736 0.92893404
0000d0 56 fc 83 bf 8f 75 db bd f3 bc d2 3d 1c 60 97 3f
       -1.0311382 -0.10715782 0.102899455 1.1826205
0000e0 85 35 70 3f bd 5c fe 3c d8 3f b9 3e cb 2f 28 3d
       0.93831664 0.03105008 0.3618152 0.041061204
0000f0 0b 47 6f bf 21 7f 5e bf 7e 33 74 3f a3 14 9e bf
       -0.9346778 -0.86912733 0.9539107 -1.2350048
000100 d3 a3 e9 bf 2b 97 ca 3f 6d ad 29 3f 8c 1a 23 c0
       -1.825312 1.5827383 0.6628025 -2.5484953
000110 2b 62 83 3e ca 2e 6c 3e 11 b1 da 3d 14 d5 17 3d
       0.25660834 0.23064724 0.10678304 0.03706844
000120 f9 9d e7 bf b9 a8 91 bf dd b3 5a bf d4 7f c6 be
       -1.8095084 -1.1379615 -0.854307 -0.387694
000130 9b 39 9b be d7 78 43 bd b9 16 af 3e ba 75 1f bf
       -0.30317387 -0.047722664 0.34197024 -0.6228901
000140 75 39 60 be 65 c8 26 3f 16 11 99 3f 94 bf 9e 3e
       -0.21896918 0.6514953 1.1958339 0.31005538
000150 d0 31 e1 3f 83 7c a1 bf 33 80 f6 be fe 96 4d bf
       1.7593327 -1.2616123 -0.48144683 -0.8030852
000160 94 3f bc bf b6 dc c7 bf 85 08 e1 be 89 33 a0 3f
       -1.4706903 -1.5614231 -0.43951812 1.2515727
000170 a0 86 02 3f 2e 8a 9a bf 3b 67 87 bf 38 1a f7 bf
       0.5098667 -1.2073419 -1.0578378 -1.9304876
000180 9c bf 87 be 45 ff 3d 3f 31 20 27 3f fa 5a af bf
       -0.26513374 0.74217635 0.65283495 -1.3699639
000190 d3 6a 99 3e ed cd 13 c0 b1 8d f5 be 24 71 0d 3f
       0.29964313 -2.3094437 -0.47959664 0.55250764
0001a0 5c 0c 1f bf af d5 9e bc 34 a5 fb 3b 9f 58 8b bc
       -0.62128234 -0.019389002 0.007679606 -0.017010031
0001b0 5e ba 81 3f f5 fc c0 bf df a5 69 3f 00 58 1a bf
       1.0135 -1.5077196 0.91268724 -0.6029053
0001c0 0b 35 32 bf b4 28 a6 3d fd a0 10 3e 3b 15 33 3c
       -0.6961219 0.08113232 0.14123912 0.010930355
0001d0 5f ff 35 be 84 d9 51 bf 98 eb a9 bd 1a 3c 8c 3f
       -0.17773198 -0.8197253 -0.08296889 1.0955842
0001e0 8d a4 47 be 69 fd a3 3f 22 b1 05 c0 50 d5 76 3e
       -0.19496365 1.281171 -2.0889363 0.2410481
0001f0 94 52 a9 bf c5 a8 e8 be cf 4b 41 bd c2 1f 11 3f
       -1.3228326 -0.4544126 -0.047191437 0.56689084
000200 24 f5 27 bf bd 55 f7 3e dd bb 44 c0 c2 a5 aa be
       -0.6560843 0.483076 -3.0739663 -0.33329588
000210 9f 96 21 40 44 9e c1 3f bf 7a a6 be b6 c0 29 be
       2.5248182 1.5126424 -0.32515523 -0.1657742
000220 e3 5b 5e 3f ef 98 83 3f 55 2c 15 3e f9 37 b5 bf
       0.8685896 1.0281047 0.14567693 -1.4157706
000230 c3 25 c2 3f 5b 78 61 3e d8 fa 1b 3f 65 4a 37 3f
       1.5167774 0.22018568 0.6092963 0.7159789
000240 93 ec c8 3e af 07 93 3f 42 5c 45 3f 5e ea 91 3f
       0.39242992 1.148672 0.770939 1.1399648
000250 d7 bb f6 bf ac ce 8a 3f 34 0e 8c 3d 18 09 c2 bf
       -1.9276074 1.0844321 0.068386465 -1.5159025
000260 1c b1 58 bf bb cd e9 bc 7a 2e dd bf 54 23 70 be
       -0.8464525 -0.028540483 -1.7279809 -0.23450977
000270 2d 1c 43 3f 9f b0 4f 3f 79 02 2c bf 5c f0 dc 3f
       0.7621487 0.8112888 -0.6719127 1.7260852
000280 ff 21 6c 3f d0 83 ea be fb 0e 6d bf 2a 13 50 3d
       0.92239374 -0.4580369 -0.92600983 0.050799526
000290 38 97 c1 3d 3f fe a4 bf c1 0f db 3f f3 69 fe be
       0.09452671 -1.289009 1.7114183 -0.49690208
0002a0 54 9b c0 be 9c 2a bd be 5c 01 8d 3e ce 27 0b 3f
       -0.37618506 -0.3694657 0.275401 0.5435761
0002b0 0b 88 94 3f 6b 47 4b 3f 56 21 07 bf ba c0 15 be
       1.1604017 0.7940585 -0.5278524 -0.146243
0002c0 fc 49 fe 3e 93 1f d8 3f c3 2c fa 3f a4 1e 54 bf
       0.4966582 1.6884636 1.954491 -0.82859254
0002d0 3f 67 1c bf 32 d9 b9 bf d2 8f 1e 40 7e b7 15 3f
       -0.6109504 -1.4519408 2.477528 0.5848311
0002e0 68 76 79 bf 59 56 10 bf ae 9c 56 3f 6e 72 ad bd
       -0.974463 -0.56381756 0.83832824 -0.08469091
0002f0 a7 bd 5c be 54 41 e5 bf 0d 24 86 bf b0 19 8f bd
       -0.21556722 -1.7910562 -1.0479752 -0.069873214
000300 70 8a c4 bf ce 23 5b 3e c6 f4 3c bf d8 82 6c bf
       -1.5354748 0.21400377 -0.73810995 -0.9238715
000310 2d 20 3f 3f f7 9f 05 c0 aa cf f9 bf 7c df 25 be
       0.7465847 -2.0878885 -1.9516499 -0.16198534
000320 96 e9 84 be 4d 0b 3e bf 01 6e d9 bb 6f a6 87 be
       -0.25959462 -0.74235994 -0.006635428 -0.26494166
000330 d9 fd a9 3d 7f 90 a3 3e b7 b7 3a bf 38 54 ac 3e
       0.08300371 0.3194618 -0.72936577 0.33658004
000340 f7 68 35 3f 97 51 9c be df 14 38 bd a8 58 b2 bc
       0.7086329 -0.30530998 -0.04494178 -0.02177079
000350 bb 16 bb 3e 5a 26 47 bf 5f a8 56 bf 25 12 bc 3d
       0.3654078 -0.77792895 -0.83850664 0.09183148
000360 19 09 2e 3f 99 53 8c bf dd e1 f1 3f 76 6a df 3f
       0.6798263 -1.0963012 1.8897053 1.7454364
000370 90 7c b7 be 02 b0 03 3f a5 f7 06 3f a0 7b 97 bf
       -0.3583722 0.5144044 0.52721626 -1.1834602
000380 1e 21 0c be 85 68 b4 bf 74 49 e5 bf 5c f0 a9 3f
       -0.13684508 -1.4094397 -1.7913041 1.3276477
000390 7e 2c 8b 3e 63 bc 2d 3f 26 56 e2 3e 38 dd 46 3f
       0.27182382 0.6786558 0.4420635 0.77681303
0003a0 d4 3d 83 bf 44 39 dc 3d 62 7d 96 be 6f 4a a6 3d
       -1.0253243 0.1075311 -0.29392534 0.08119666
0003b0 1e be 0e be 45 11 16 bf 8e 85 b6 be f8 b6 9c 3e
       -0.13939711 -0.586201 -0.3564877 0.30608344
0003c0 5e 4a 00 bc 34 84 b5 3f 63 45 f3 bf 1e 66 e0 be
       -0.0078302305 1.418097 -1.900555 -0.4382791
0003d0 1d c4 38 3f 5e e4 4e bf 5f 16 77 3f a9 45 93 3f
       0.72174245 -0.8081721 0.9651851 1.1505634
0003e0 04 0b ed 3e ca 9c 43 bf 9e 1d 1e 3e 2d 5e bd 3f
       0.46297467 -0.76411116 0.15440986 1.4794365
0003f0 cc 33 da 3f 07 ba c2 bf 83 62 7a bf 51 4d b8 be
       1.7047057 -1.5213021 -0.97806567 -0.35996488

conv2.6.kernel f4 [64, 1, 3, 3]
000000 b0 0a 77 bf 4b ad d4 3e e4 6b d6 3e 78 67 16 bf
       -0.9650068 0.41538462 0.4187919 -0.5875163
000010 aa 11 3d bf 0e 27 17 3e 55 46 aa 3f 6a 2d 96 3e
       -0.7385508 0.14760992 1.3302714 0.29331523
000020 0e 2f 3d 3f f8 80 f1 bd f0 a0 0f 3f c2 ea 10 bd
       0.73899925 -0.11792177 0.56104946 -0.035380132
000030 c2 13 1d bf 46 d9 00 bf a2 4c 81 3f c6 42 47 3c
       -0.61358273 -0.5033153 1.0101511 0.012161916
000040 f8 8c 24 3f a4 8c af bf ef f8 5c bf 8a f7 5e 3f
       0.642776 -1.3714795 -0.8631734 0.87096465
000050 a3 99 af bf e7 0b 4b 3f 0d 52 54 3f 4e 8f 2a bf
       -1.3718761 0.79315037 0.829377 -0.66624916
000060 75 b8 10 bf 79 41 6d bf 42 26 47 3f 12 61 05 bf
       -0.5653146 -0.9267803 0.7779275 -0.5210124
000070 e3 1b b0 bf 03 13 c1 3e 6e fb 10 c0 76 ce 4c 3e
       -1.375851 0.37709817 -2.265346 0.20000634
000080 57 1f 83 3f 20 f3 37 be 2e 00 83 3d 8f ba 56 bd
       1.0243939 -0.17963839 0.06396519 -0.05242401
000090 f4 cb b1 3f d4 fa d4 3e 2b 23 aa be f2 f6 17 bf
       1.3890367 0.41597617 -0.33229956 -0.59361184
0000a0 5a 4c f3 be cc 9d 81 3f ca 91 2f 3f 17 44 98 bf
       -0.4751919 1.0126281 0.6858183 -1.1895779
0000b0 38 59 37 be 5e 26 6c 3f c2 63 36 3e dc 0c 51 bf
       -0.17905128 0.92246044 0.17811492 -0.81660247
0000c0 5c 25 65 3f 0f 51 de bf 38 7f 6b 3f aa cc 97 be
       0.8951013 -1.7368487 0.91990995 -0.29648334
0000d0 91 9d b8 3e a5 f2 fc 3d 59 81 94 bf 2e fc 89 3f
       0.36057714 0.12350968 -1.1601974 1.0780084
0000e0 76 11 0a 3f 60 f6 39 3f 6c 04 f5 3e 38 4f 01 3f
       0.53932893 0.72641563 0.47854936 0.50511503
0000f0 29 ee 42 bf 90 f0 3c 3e 7a a8 ce be 73 44 51 3f
       -0.76144654 0.18451142 -0.40362912 0.8174507
000100 be 58 57 bf 6c 6c 87 bf d5 ae 01 be 2c d4 9a 3f
       -0.84119785 -1.0579963 -0.1266435 1.2096
000110 60 c7 d5 3d 06 9e 51 3f d1 a4 b7 bf 58 06 b4 bf
       0.104384184 0.8188175 -1.4347173 -1.4064436
000120 d2 da 96 3e f3 a6 95 3f 28 06 0c 3f a1 48 96 bc
       0.29463822 1.1691574 0.54696894 -0.018345179
000130 cb 4a db bf 84 0a c5 3d 22 07 16 3f 63 48 5a bf
       -1.71322 0.09621146 0.58604634 -0.85266703
000140 82 fd e7 bf 5f cc ca be 31 27 2c bf b6 41 b6 be
       -1.812424 -0.39609048 -0.672473 -0.35597008
000150 66 60 57 be 48 d7 5f be 6b 4a df 3f 63 ad 53 3e
       -0.21032867 -0.21859467 1.7444586 0.2067161
000160 f4 3a 55 3f 8c 9d 59 3f 0e 0f c2 bf 40 b4 f3 be
       0.8329308 0.8500602 -1.5160844 -0.47598457
000170 76 63 a0 be b1 8b d9 3d 6a 89 30 3e aa 43 96 3f
       -0.31325883 0.10622347 0.1723992 1.17394
000180 5a 68 c5 3e ed 35 13 bf 82 26 9e 3e 72 73 80 3e
       0.38556176 -0.5750416 0.30888754 0.25088078
000190 66 16 b9 bd e2 75 0e c0 16 25 40 3f a8 7c 90 3f
       -0.09037475 -2.225945 0.7505659 1.1288042
0001a0 c0 ca 36 3f e1 68 87 3f 3f 2d 74 bf 1a c6 39 bf
       0.7140312 1.0578882 -0.9538154 -0.72567904
0001b0 e9 ab 0f 40 ae 0e ce 3e 82 d6 50 bf 76 3f e4 bc
       2.2448676 0.40245575 -0.8157731 -0.027862292
0001c0 a1 ae 33 3f a4 14 a6 3f ba db 62 3f 2a 87 df bf
       0.7018834 1.2975049 0.88616526 -1.7463124
0001d0 b3 98 e2 3f 1a 06 bb 3c de 6e b2 bf ce e2 e9 3e
       1.770285 0.022830058 -1.3940084 0.4568085
0001e0 17 1b 83 bf 8a a2 88 3b 1a 5c 22 bd 8c 32 ac be
       -1.0242642 0.004169767 -0.039638616 -0.33632314
0001f0 05 28 cf 3f f2 53 92 3f cb 40 b2 bd 22 4f 53 bf
       1.6184088 1.1431868 -0.087037645 -0.8254262
000200 5c 15 2a 3e 1a ad 27 be a8 79 8a be 86 79 70 3d
       0.1660971 -0.16374627 -0.2704594 0.058709644
000210 55 51 d7 3f 25 6d b3 bd b8 21 04 bf 44 9f dd 3e
       1.6821696 -0.08761052 -0.5161395 0.43285573
000220 e9 f5 49 bf d9 df e0 3d dd 22 70 3f 87 66 9f be
       -0.78890854 0.109801956 0.938032 -0.3113291
000230 bb 48 82 bf 10 9e 0e bf e7 ed 9c bd 95 e2 08 bf
       -1.0178446 -0.55709934 -0.07662564 -0.53470737
000240 70 62 e8 3e 13 d6 c6 be 69 5f 39 be d6 d4 b3 bf
       0.45387602 -0.388352 -0.18102802 -1.4049327
000250 a2 8c c1 3f 3e 61 11 bf 69 45 10 bf 33 97 68 3e
       1.5121043 -0.56789005 -0.5635591 0.22713928
000260 29 78 a7 3e d2 b0 c6 be 53 4d 39 3f 81 a2 74 3f
       0.32708862 -0.38806778 0.7238361 0.9556046
000270 1c 85 36 3d 81 4b 98 3f 61 8f 95 bf 1b fa c6 3e
       0.044560537 1.1898042 -1.1684381 0.3886269
000280 f3 47 0f bf ba 8b 52 bd e7 b6 a4 3f cd 8d 90 bf
       -0.5596916 -0.051402785 1.2868317 -1.1293274
000290 b5 74 a8 3f 36 9e a3 bf 81 3b b9 3f 9c 1b 82 bf
       1.3160616 -1.2782657 1.4471284 -1.0164676
0002a0 95 6d 67 be 9f 79 ed 3e ed 8d a7 3f 58 28 d3 bf
       -0.22600396 0.46381852 1.3090187 -1.6496687
0002b0 55 90 7d bf 03 cc 6e bf c6 79 6d 3f b1 f3 99 3d
       -0.9904836 -0.9328005 0.92763937 0.075171836
0002c0 64 c3 62 bf b4 e5 0b 3f c9 66 b7 bf 0f c3 18 bf
       -0.8857939 0.54647374 -1.4328243 -0.59672636
0002d0 5d 94 36 3f 46 d1 85 3e c8 67 0b 3e eb d2 2a 3e
       0.71320134 0.26136225 0.13613808 0.16682021
0002e0 2d 35 e2 3e b2 5a dc 3f 53 48 82 3e 06 2d ea 3f
       0.44181195 1.7215178 0.25445804 1.829499
0002f0 88 bc b7 3f 1f 9e 29 3f 3e 59 0c c0 8d 0e 2c 3d
       1.435441 0.662569 -2.192947 0.042006064
000300 74 a0 8b bd 91 5c af 3f f0 aa 01 40 04 20 df bf
       -0.068177134 1.3700124 2.0260582 -1.7431645
000310 5e 94 97 bf a1 9f 90 bf 2a f9 83 3f f8 d6 ae be
       -1.1842153 -1.1298715 1.0310414 -0.34148383
000320 1d 83 65 3f 7d 4a 8f be 40 94 0c c0 5c a9 e9 bd
       0.8965319 -0.27986518 -2.1965485 -0.11409256
000330 46 5c ef 3e 59 19 9d 3f bc 63 c0 bf 00 8b 83 3f
       0.46750087 1.227336 -1.5030437 1.0276794
000340 b5 77 99 bf 11 b8 56 3d 02 f2 80 3e 79 7a 31 bd
       -1.1989657 0.052421633 0.25184637 -0.04332969
000350 99 df 16 be 75 36 9b bf 5e d5 ca 3f 72 08 a7 bf
       -0.14733733 -1.2125994 1.5846364 -1.3049452
000360 ea a2 6e 3e ac b3 83 3e c9 6a 39 3e a5 7c a9 bc
       0.23304334 0.25723016 0.18107142 -0.020689318
000370 d7 8a 84 bf 39 00 e1 3e 8e 5c 06 3f d3 f6 ba be
       -1.035487 0.43945482 0.5248498 -0.36516437
000380 ec 64 d9 3f ed 36 c0 be e0 cf 13 3e 37 b7 36 3f
       1.6983924 -0.37541905 0.14434767 0.71373314
000390 e5 d5 89 3f d5 d2 95 3e 62 94 08 bf c9 9c 5a be
       1.07684 0.29262415 -0.53351414 -0.21348871
0003a0 be be 0e 3e c2 22 a2 3f ff 3a b0 be 69 02 79 bf
       0.1393995 1.2666857 -0.3442001 -0.972693
0003b0 11 5d 6a bf 09 61 58 3f d5 43 96 be fc 6e a5 be
       -0.9154826 0.84523064 -0.29348627 -0.32311237
0003c0 6d c8 9f be fd a6 06 c0 27 0e 7c 3c 23 20 9a be
       -0.312076 -2.1039422 0.015384234 -0.30102643
0003d0 4e 26 93 be 51 68 46 40 a5 4e ed bf 3a 92 40 bf
       -0.28740162 3.100117 -1.8539625 -0.75223124
0003e0 f1 e9 a0 bf ac 7e 93 bf 17 2d bf 3f 8d a2 7d 3f
       -1.2571393 -1.1523032 1.4935635 0.9907616
0003f0 7c 7c cf 3d 3b 24 b1 be 03 cf c0 3f 56 79 5d 3f
       0.101311654 -0.34597954 1.5063175 0.8651327
